app/src/main/ml/model1 (1).tflite (tflite, 149852 bytes, 10 tensors)

sequential_1/conv2d_3/Relu;sequential_1/conv2d_3/BiasAdd;sequential_1/conv2d_5/Conv2D;sequential_1/conv2d_3/Conv2D;sequential_1/conv2d_3/BiasAdd/ReadVariableOp f4 [32, 3, 3, 3]
0	0xb8f733da	-0.00011787536
1	0xba259344	-0.0006316195
2	0xb8ae75ba	-8.318895e-05
3	0x3906457d	0.00012805122
4	0xb9146d9c	-0.00014155213
5	0xba032aed	-0.000500365
6	0x3a02ad59	0.0004984937
7	0xb88ff708	-6.8647845e-05
8	0x3a2e5020	0.0006649513
9	0xb8b22cd5	-8.496052e-05
10	0xba2f420f	-0.0006685564
11	0xba233b74	-0.0006226816
12	0xba0a8f9e	-0.0005285683
13	0x39a12bb0	0.00030740863
14	0xb9a21851	-0.00030917165
15	0x39033af0	0.0001251509
16	0x3a420159	0.00074007135
17	0x3a67f6dc	0.00088487356
18	0x39064eb0	0.00012808549
19	0xb9c88e96	-0.00038253207
20	0xb9b65774	-0.00034778903
21	0x390e46e1	0.0001356858
22	0xb9f04f54	-0.0004583547
23	0x391cf140	0.00014967192
24	0x3a2f57cb	0.00066888024
25	0x39fd8e41	0.00048361908
26	0x3994e00b	0.00028395685
27	0xba1f0bd6	-0.00060671323
28	0xb9865ba5	-0.00025626752
29	0xba0ae130	-0.0005297838
30	0xb8de2b11	-0.00010593807
31	0xb89e7875	-7.556464e-05
32	0x398bc6a1	0.00026660136
33	0xba0d8ba3	-0.00053995306
34	0xb9f6f904	-0.00047106307
35	0x38780987	5.913668e-05
36	0x39771fa9	0.0002356755
37	0x3a2677a8	0.00063502276
38	0x39c90feb	0.00038349567
39	0x3a086ab7	0.000520389
40	0xb9ed89ba	-0.00045306777
41	0x39970420	0.00028804038
42	0x3999ea8a	0.0002935718
43	0x3989659c	0.0002620638
44	0xba02583d	-0.0004972255
45	0xb9a086dd	-0.0003061806
46	0x36e4686b	6.8070854e-06
47	0xb90b0f21	-0.00013261709
48	0x3952eb14	0.00020114734
49	0xb9b895fa	-0.00035206956
50	0x39d01d04	0.0003969447
51	0xb81a2f5e	-3.6760575e-05
52	0xb9f2408e	-0.00046205934
53	0x39c9592d	0.0003840415
54	0x39863c42	0.00025603367
55	0xb9fa80e7	-0.00047779756
56	0x387f73d9	6.090463e-05
57	0xb9ed8c2b	-0.00045308596
58	0xba026e7e	-0.0004975571
59	0x39f7102c	0.0004712356
60	0x39a33087	0.00031125938
61	0x39be791a	0.00036329852
62	0x395c32b9	0.0002099973
63	0xb93e957f	-0.00018175504
64	0x393d5bb5	0.00018058608
65	0x3a20fe66	0.0006141424
66	0x3940e149	0.00018394472
67	0xb79bf33e	-1.8590708e-05
68	0x3a2d5cc1	0.00066132477
69	0xb8d8df48	-0.00010341272
70	0xb9d37ac3	-0.0004033652
71	0xb8fc1022	-0.00012019301
72	0xb5308560	-6.5759195e-07
73	0x3a3233ee	0.0006797899
74	0x39e7d64a	0.0004421941
75	0x3a1c839b	0.00059705385
76	0x3a37b36f	0.00070076337
77	0x3821d2e9	3.8581817e-05
78	0xb8492b8c	-4.796269e-05
79	0x39055a6c	0.00012717553
80	0x39273571	0.0001594627
81	0xb9d20fb8	-0.00040066033
82	0x3a02e042	0.00049925235
83	0x38ee208c	0.00011354787
84	0xb9d7e6a2	-0.0004117983
85	0xb8fb7245	-0.00011989897
86	0xb928ecf9	-0.00016110008
87	0xb9e4642c	-0.00043562183
88	0x3a00a27a	0.00049070234
89	0xb8fa94ea	-0.00011948666
90	0x3a19234d	0.0005841747
91	0x38e3bfa2	0.00010859898
92	0xb9cd92fb	-0.00039210156
93	0xb985f35d	-0.00025549057
94	0x39b70c81	0.00034913796
95	0x3a2503b7	0.0006294804
96	0xb9bb654b	-0.0003574289
97	0x3a0cc826	0.00053704006
98	0xb8fab0da	-0.0001195387
99	0xb88deb33	-6.767213e-05
100	0xb8856d28	-6.362266e-05
101	0x3a1536d1	0.0005692067
102	0x38df0d08	0.00010635896
103	0xb9c3ba6b	-0.0003733219
104	0x3800ebac	3.0737065e-05
105	0xb9f02bdb	-0.00045809042
106	0xb9a7ec93	-0.00032028984
107	0xb9ee2698	-0.00045423652
108	0xb9b8dae1	-0.00035258292
109	0xba1b5b4c	-0.0005926385
110	0x390548b8	0.00012710958
111	0xba3ba3f0	-0.00071579125
112	0xb8ebf4c8	-0.00011251267
113	0xb9f7ed48	-0.000472883
114	0x3a35d573	0.00069364085
115	0x39e0f065	0.00042903717
116	0x39040233	0.0001258932
117	0x38b8456a	8.786733e-05
118	0xb9a56b8c	-0.0003155138
119	0xba1da0fa	-0.0006013062
120	0x398f91e2	0.00027383777
121	0xb9b2e0bf	-0.00034118255
122	0x39a033e8	0.0003055625
123	0x371904d3	9.120634e-06
124	0x39d481e8	0.0004053258
125	0xb9b98798	-0.00035386975
126	0xb80a430c	-3.2964206e-05
127	0x38c28237	9.274895e-05
128	0x39ccd4e6	0.00039068534
129	0x3a13a1c5	0.00056317105
130	0x393c3b18	0.00017951091
131	0xb9d753b9	-0.00041070374
132	0xb9f1a1f8	-0.00046087778
133	0x3959b8db	0.00020763597
134	0x398c70b9	0.00026786866
135	0xba3a8bb4	-0.00071161543
136	0xba3379f7	-0.0006846482
137	0xba31f48a	-0.00067884533
138	0x376987cc	1.39195e-05
139	0xb9406a9b	-0.0001835026
140	0x39fe1939	0.00048465448
141	0x38d3e453	0.00010103793
142	0xb99e1da9	-0.00030158207
143	0x39ab0370	0.00032618223
144	0xb8b6932b	-8.7058484e-05
145	0xb965fa2b	-0.00021932337
146	0xba200bca	-0.00061052723
147	0x3a2fd6ff	0.0006707757
148	0x38e8e254	0.00011104779
149	0x3a2671e8	0.0006349371
150	0xb8653d33	-5.465485e-05
151	0x3a341c20	0.0006870646
152	0xb8e637d7	-0.000109776556
153	0xb9fb320e	-0.00047911744
154	0xba1d08f2	-0.00059904077
155	0xba30a8ae	-0.00067390024
156	0x3a09136a	0.0005229028
157	0x3a2e1a12	0.0006641458
158	0x39bc9651	0.0003597015
159	0x3a11ddb4	0.00055643474
160	0x39846411	0.00025251557
161	0x39f2a9a8	0.0004628424
162	0xb92a8b88	-0.00016264443
163	0xb8ffb5ba	-0.00012193197
164	0xb9e8058f	-0.0004425463
165	0x395aeab8	0.0002087754
166	0x391cfa70	0.00014970615
167	0x39d64854	0.0004087115
168	0x39ed439a	0.0004525453
169	0x3962f0cf	0.00021642748
170	0xb9d1ad49	-0.00039992694
171	0x39849bd6	0.0002529311
172	0xb9a11e78	-0.00030731014
173	0xb9ef2aec	-0.00045617612
174	0x398ed0a2	0.00027239794
175	0xb94bb8ca	-0.00019428428
176	0xb979aa04	-0.00023809826
177	0xb61456a3	-2.2104148e-06
178	0x38db8e81	0.00010469277
179	0x398a9a02	0.00026436156
180	0x39af63c8	0.00033452944
181	0x38c1751a	9.224769e-05
182	0xba05f101	-0.000510946
183	0x395cb9c4	0.00021050038
184	0x39b8f1b0	0.00035275286
185	0x390e427b	0.00013566941
186	0x3a1eab15	0.0006052715
187	0x3a1bae3f	0.00059387455
188	0x38d7b7a6	0.00010286206
189	0x3912f469	0.00014014695
190	0x390f012e	0.00013637982
191	0x39186ce0	0.00014536409
192	0x390003c2	0.00012208431
193	0x39e476e1	0.0004357612
194	0x38bcfaf5	9.011283e-05
195	0x396b9395	0.00022466325
196	0x3771e001	1.4416874e-05
197	0x39a9a98e	0.0003236052
198	0xb9b18599	-0.0003385961
199	0x39952654	0.0002844805
200	0xb7ebc82f	-2.81074e-05
201	0x39d6838a	0.00040915265
202	0xb96d6ac4	-0.00022641855
203	0x39a1ac2f	0.000308366
204	0x39ad6943	0.00033075557
205	0x3941127b	0.00018412799
206	0x39f837da	0.0004734386
207	0x396bab88	0.00022475247
208	0xb8d33858	-0.00010071759
209	0xb9f8d914	-0.00047463982
210	0xb9f5ed62	-0.00046906905
211	0x385c096f	5.2460873e-05
212	0xba0e74a5	-0.00054342515
213	0x389cca3f	7.476331e-05
214	0x384b2ab6	4.843875e-05
215	0x3a130f12	0.00056098506
216	0x39867c3e	0.0002565104
217	0xb9e918a3	-0.0004445958
218	0xba04346f	-0.00050432136
219	0xb9f9e4f9	-0.0004766358
220	0x3891ed04	6.9582864e-05
221	0x3957bb0c	0.00020573678
222	0x39470cf1	0.0001898294
223	0x39e873fa	0.00044336898
224	0xba0d4b3a	-0.0005389933
225	0xb896ca97	-7.190293e-05
226	0x385643e8	5.108482e-05
227	0xb84dc27f	-4.9056947e-05
228	0x3a0e6b9f	0.0005432907
229	0x394a281e	0.00019279166
230	0xb88d7ca0	-6.746617e-05
231	0xb98fc71e	-0.0002742344
232	0x37124724	8.718842e-06
233	0x39841f6d	0.00025200416
234	0xba1f3acd	-0.00060741307
235	0x398be85c	0.00026685267
236	0x39d8496a	0.00041253428
237	0x3467efd1	2.1600796e-07
238	0x39c6a45c	0.0003788796
239	0xb9cc830c	-0.0003900755
240	0xb9bca339	-0.00035979765
241	0xb96a728e	-0.00022358654
242	0xb938efdf	-0.00017636966
243	0xb97d5323	-0.00024158931
244	0x3950a283	0.00019896966
245	0xba41ee56	-0.00073978805
246	0xb9c9c824	-0.00038486824
247	0xb9f8f3e7	-0.00047483968
248	0x385c2885	5.2489824e-05
249	0x3a16409d	0.0005731674
250	0x39b181c3	0.0003385675
251	0xb9de1765	-0.0004236057
252	0xb9e76be8	-0.0004414015
253	0xb7ffd2cb	-3.0496527e-05
254	0x399ee231	0.00030304634
255	0xb9edd0d5	-0.00045359755

sequential_1/conv2d_3/BiasAdd/ReadVariableOp f4 [32]
0	0xbd042da4	-0.03227009
1	0x3d83ccf7	0.06435578
2	0xbdb7ca40	-0.08974123
3	0x3dc4ac91	0.09603227
4	0x3d71348f	0.058888014
5	0xbbf67b9c	-0.0075220596
6	0xbdb90d5f	-0.090357535
7	0xbdad111c	-0.08450529
8	0x3d8f0a07	0.069843344
9	0x3da4eb22	0.080526605
10	0x3dd6b48f	0.104836576
11	0x3d9d24bb	0.076730214
12	0xbdb8b724	-0.09019306
13	0x3c73e696	0.014886519
14	0x3e0021a6	0.12512836
15	0xbb5eff28	-0.0034026597
16	0xbdcb2cac	-0.0992063
17	0xbd7774ec	-0.06041424
18	0xbdbb700f	-0.09152233
19	0xbcb761d2	-0.022385512
20	0x3db98473	0.09058466
21	0xbdd66685	-0.10468773
22	0x3d6473a3	0.055774342
23	0xbd3fad04	-0.04679586
24	0x3ca2994b	0.019848486
25	0x3d958f1b	0.07302686
26	0x3d89a8a2	0.06721617
27	0x3d6ecfde	0.058303706
28	0xbdb827a1	-0.089919336
29	0xbd978c01	-0.073997505
30	0x3c4759ee	0.012167437
31	0x3cd18938	0.025578126

sequential_1/conv2d_4/BiasAdd/ReadVariableOp f4 [32]
0	0x3cd2a1b1	0.025711866
1	0xbd62cca9	-0.05537096
2	0xbdc189bf	-0.09450101
3	0xbc3127ae	-0.010812683
4	0x3d3978bf	0.045281168
5	0xbda02dab	-0.078212105
6	0xbdc01b80	-0.09380245
7	0x3d394d0c	0.045239493
8	0x3d795f32	0.0608818
9	0xbd85af8a	-0.06527622
10	0xbdc17b3a	-0.09447332
11	0xbc3d5db5	-0.011557986
12	0xbd54e5c0	-0.05197692
13	0xbd68b594	-0.05681379
14	0x3d50248f	0.050816115
15	0xbda2d149	-0.07950074
16	0xbd9db719	-0.07700939
17	0xbd9851a3	-0.07437446
18	0xbcfbec01	-0.030752184
19	0x3ca33f4f	0.019927649
20	0xbd712a90	-0.05887848
21	0x3d820dc5	0.063502826
22	0xbdb9a15d	-0.09063981
23	0xbdb82f7d	-0.08993433
24	0x3d35f284	0.044420734
25	0xbd77359e	-0.060353868
26	0x3d5464c8	0.051853925
27	0xbc6faba8	-0.014628328
28	0x3d92f199	0.07174987
29	0xbb6396e5	-0.0034727391
30	0x3d3d9107	0.046280887
31	0x3d887b32	0.06664123

sequential_1/conv2d_5/BiasAdd/ReadVariableOp f4 [32]
0	0xbd814111	-0.063112386
1	0xbdbec381	-0.09314633
2	0xbc1f4169	-0.009720185
3	0xbd2556a8	-0.040365845
4	0xbcede06d	-0.029037679
5	0x3d1ddb79	0.038539384
6	0xbb8514d5	-0.0040613213
7	0xbd4aaba9	-0.049480114
8	0x3bb6db7d	0.0055803643
9	0xbc2940e2	-0.010330411
10	0xbce1f375	-0.02758191
11	0x3d8c2fa0	0.06845021
12	0x3928f78d	0.00016113948
13	0x3dad6d72	0.08468141
14	0xbc1e7cfa	-0.009673351
15	0xbceb28bb	-0.028705945
16	0x3dd0b153	0.10190072
17	0xbd1e58e8	-0.038659006
18	0xbc88f19d	-0.016716773
19	0xbd651703	-0.05593015
20	0x3c9fcff0	0.019508332
21	0xbaf11e2d	-0.0018395834
22	0x3cdc9809	0.026927965
23	0xbc267aaf	-0.010161086
24	0x3bd6b532	0.006552362
25	0xbba14ff5	-0.0049228617
26	0xbd975d2a	-0.073908165
27	0xbd71d92e	-0.05904501
28	0x3ad8e55b	0.0016547845
29	0xbc26600a	-0.010154733
30	0x3c414d0e	0.011798156
31	0xbd2e64d9	-0.042576645

sequential_1/conv2d_4/Conv2D f4 [32, 3, 3, 32]
0	0xbe21fae3	-0.15818362
1	0x3b2f96bf	0.0026792733
2	0x3c815c77	0.015791161
3	0x3dcf0b94	0.1010963
4	0x3d25a3cc	0.040439412
5	0x3c9f7fab	0.019470057
6	0xbd80c520	-0.062875986
7	0xbd5a7e3f	-0.053343054
8	0x3da89a41	0.082325466
9	0x3dcdfa87	0.1005755
10	0xbd0c934f	-0.034320172
11	0x3dd7c333	0.10535278
12	0x3d7d64ba	0.06186364
13	0xbe1cea0c	-0.15323657
14	0x3e54eb14	0.207928
15	0x3d78d919	0.060753915
16	0xbe14f77a	-0.1454753
17	0xbdb6316d	-0.08896146
18	0x3d7cbe97	0.0617052
19	0xbe1a14b7	-0.15046965
20	0x3d26a512	0.040684767
21	0xbe1543f4	-0.14576703
22	0x3e4138a7	0.18869267
23	0x3d9c438d	0.07630072
24	0x3dd0d42f	0.10196721
25	0x3dcd733c	0.10031745
26	0x3da882c2	0.08228065
27	0x3e325f64	0.17419201
28	0xbdf44803	-0.11927798
29	0xbc12a7f6	-0.008951178
30	0x3ddd4012	0.10803236
31	0xbe15ef65	-0.14642103
32	0x3cbe1fe1	0.02320856
33	0x3c71fc4d	0.014769626
34	0xbe27b15a	-0.16376248
35	0xbd61451a	-0.05499754
36	0x3be8f335	0.0071090707
37	0x3c9c64d7	0.019091053
38	0xbd0f215f	-0.034943935
39	0xbdabdf93	-0.08392253
40	0xbc9003ca	-0.017579932
41	0x3e0781b1	0.13233067
42	0x3e1c6fb0	0.1527698
43	0x3de969c1	0.11397124
44	0xbe0b4368	-0.13599932
45	0x3d416ccd	0.0472229
46	0x3e65cadb	0.22440664
47	0x3a88703c	0.0010409425
48	0xbd3655c8	-0.0445154
49	0xbda1e72d	-0.079054214
50	0xbd96a86d	-0.073563434
51	0x3d694278	0.056948155
52	0xbd755a67	-0.059900668
53	0xbccf7dcf	-0.025328545
54	0xbc332148	-0.010933228
55	0x3d07ca48	0.033151895
56	0xbdbd6c6e	-0.09249197
57	0xbd6f82e0	-0.05847442
58	0xbc87d953	-0.01658312
59	0x3d85d469	0.06534655
60	0x3d0e11c2	0.034684904
61	0x3b8473fb	0.0040421463
62	0xbdb0d45a	-0.08634253
63	0x3cb8a861	0.022541227
64	0xbda39ef9	-0.07989306
65	0x3dfa52d5	0.1222283
66	0xbe1aad3f	-0.1510515
67	0xbd93544b	-0.07193812
68	0xbbb43179	-0.0054990617
69	0x3d1d1079	0.038345788
70	0xbd2dfb6e	-0.04247611
71	0xbde184cc	-0.11011657
72	0x3d7168c1	0.05893779
73	0x3e03297b	0.12808792
74	0x3d319e22	0.043363698
75	0x3e019142	0.12653068
76	0xbe15f590	-0.14644456
77	0xbc9d8db6	-0.019232612
78	0x3e28a594	0.16469413
79	0x3dd53d9f	0.10412144
80	0xbe388e61	-0.18023063
81	0xba23073d	-0.0006219035
82	0x3b64287e	0.0034814174
83	0xbe287c2b	-0.16453616
84	0x3d1836e1	0.03716171
85	0xbcd4230d	-0.02589562
86	0x3dd97749	0.10618455
87	0xbde784f0	-0.11304653
88	0xbdd24b30	-0.10268247
89	0x3daffab1	0.085927375
90	0x3df35cb7	0.11882918
91	0xbc4b8cd2	-0.012423711
92	0xbe0b9b81	-0.13633539
93	0xbddb6001	-0.10711671
94	0x3da21ee3	0.079160474
95	0xbc197b91	-0.009367839
96	0xbe3fedac	-0.18743008
97	0x3e114fce	0.141906
98	0x3dabf4af	0.08396279
99	0x3d96869c	0.073498935
100	0x3d23f2b8	0.040026397
101	0xbd34e41f	-0.044162866
102	0xbdbc0be1	-0.09181953
103	0xbd1f102a	-0.038833775
104	0x3db361cd	0.087588884
105	0x3d73ee9e	0.059553735
106	0x3dd3c438	0.1034016
107	0x3e9fd9fc	0.31220996
108	0x3d9b3695	0.0757877
109	0x3da48825	0.0803378
110	0xbd7f5916	-0.06234082
111	0xbd23d6c2	-0.03999973
112	0xbca3481a	-0.019931842
113	0x3d690965	0.056893725
114	0x3dbd0855	0.09230105
115	0x3aa08b3a	0.0012248524
116	0x3d462a32	0.048380084
117	0xbc887702	-0.01665831
118	0xbcbd310c	-0.023094676
119	0x3e5b8e19	0.21440925
120	0xbda6eae8	-0.081502736
121	0x3d22bc58	0.0397304
122	0x3e1f2a6b	0.15543525
123	0x3e6218b7	0.2207974
124	0xbcd318d1	-0.02576867
125	0x3d560ac0	0.052256346
126	0x3da99818	0.08280963
127	0xbdc40311	-0.09570897
128	0xbb96f89e	-0.004607274
129	0x3d994604	0.074840575
130	0xbca9fb96	-0.020749848
131	0x3deeccdf	0.1166017
132	0x3dc2a6f3	0.09504499
133	0x3de3918c	0.11111745
134	0xbdd10d26	-0.10207586
135	0xbe1da5e5	-0.15395315
136	0x3dc28a21	0.09499002
137	0x3dbd787e	0.09251498
138	0x3e0ac273	0.13550739
139	0x3d979f32	0.07403411
140	0xbe21a729	-0.15786423
141	0xbce5ff48	-0.02807583
142	0x3d927da5	0.07152871
143	0xbc92a29b	-0.017899802
144	0xbdf62384	-0.12018493
145	0xbe07749a	-0.13228074
146	0xbdb57c2b	-0.08861574
147	0xbba97cce	-0.0051723486
148	0x3ce638b2	0.028103206
149	0xbd4eebca	-0.050517835
150	0xbd619ad3	-0.055079293
151	0xbcd867e6	-0.02641673
152	0xbcd898ca	-0.026440043
153	0x3d8c82ab	0.068608604
154	0x3c833a0a	0.016018886
155	0x39927026	0.00027930847
156	0xbdb8d085	-0.09024147
157	0xbe0d96ce	-0.13827059
158	0xbcdc045e	-0.026857551
159	0xbe1809a4	-0.14847428
160	0xbc91074b	-0.017703673
161	0x3d4b3b10	0.049616873
162	0xbe2f5d42	-0.17125419
163	0x3d31bfe1	0.04339588
164	0xbd6c68b6	-0.057717048
165	0xbcc3d86e	-0.023906913
166	0xbd7394ac	-0.059467956
167	0x3d1cae5a	0.038252212
168	0x3de1d4f9	0.110269494
169	0x3e116551	0.14198805
170	0x3d4a39c4	0.049371496
171	0x3d0652f7	0.032793965
172	0xbdaeb931	-0.08531416
173	0x3d6b61e6	0.05746641
174	0x3d969aa4	0.07353714
175	0xbcec3123	-0.028832024
176	0xbd1d9c1c	-0.038478956
177	0xbd4d882d	-0.050178695
178	0xbc9321bb	-0.01796042
179	0xbd2022c3	-0.03909565
180	0x3dde44a5	0.10852937
181	0xba9e52ce	-0.0012079121
182	0xbd772529	-0.060338173
183	0xbc08afd4	-0.008342702
184	0xbb97531f	-0.004618063
185	0xbdac6d3e	-0.08419274
186	0xbd916067	-0.070984654
187	0xbc1e481c	-0.009660747
188	0xbe0c7ca4	-0.13719422
189	0xbe03cd8c	-0.12871379
190	0x3d1c0480	0.03809023
191	0x3c8b3b81	0.016996147
192	0x3d8ca26f	0.06866919
193	0x3c199a34	0.009375144
194	0x3dad53a8	0.08463222
195	0xbd8b4fb6	-0.06802313
196	0xbd08ce7d	-0.033400048
197	0x3cf03d20	0.029326022
198	0xbd8c2c26	-0.06844358
199	0x3de02ee6	0.10946445
200	0xbc455c32	-0.012045907
201	0x3d4a91d9	0.049455497
202	0x3e1cce4b	0.1531307
203	0x3db33568	0.08750421
204	0x3ca7a691	0.020465167
205	0x3e220ebe	0.15825936
206	0xbc7d769c	-0.015470173
207	0x3d1cd8ce	0.0382927
208	0xbdca6ff3	-0.09884634
209	0xbdb426c1	-0.08796454
210	0x3dd6330b	0.104589544
211	0xbdbb1649	-0.0913511
212	0x3dedbb9c	0.11608049
213	0xbd946cad	-0.07247291
214	0x3d94a376	0.0725774
215	0x3daf419e	0.08557437
216	0xbd905822	-0.0704806
217	0x3de1be15	0.110225834
218	0x3e4dc595	0.20094903
219	0x3d96f489	0.0737086
220	0x3d3008c7	0.04297712
221	0xbd56be60	-0.05242765
222	0x3e24fb03	0.16111378
223	0xbb469104	-0.0030298838
224	0xbd665b10	-0.056239188
225	0x3e465315	0.19367631
226	0xbd1a8f4e	-0.037734322
227	0xbcec4888	-0.02884318
228	0xbd7354e2	-0.059407122
229	0x3d904599	0.07044525
230	0x3d818d7f	0.06325816
231	0x3dbe964a	0.09306009
232	0xbd217680	-0.03941965
233	0xbcb83271	-0.02248499
234	0x3d8ecbec	0.06972489
235	0x3de7fbc4	0.11327317
236	0x3cf4eb6e	0.029897418
237	0x3dac93b5	0.084266104
238	0xbdc20df5	-0.09475318
239	0xbd9b3159	-0.07577772
240	0x3d87c69d	0.06629679
241	0x3b577706	0.003287734
242	0x3d1646bd	0.036688555
243	0xbda8cec1	-0.0824256
244	0x3c67b011	0.014141099
245	0x3cdce099	0.026962565
246	0x3df5f436	0.1200947
247	0x3de2b4d0	0.110696435
248	0x3df266c5	0.11836008
249	0xbcd3c435	-0.025850395
250	0xbc7e9e22	-0.0155406315
251	0x3e08cb84	0.13358885
252	0xbd259f25	-0.040434975
253	0xbd65acc6	-0.056072973
254	0xbd33a2f8	-0.04385659
255	0x3dea8745	0.11451582

sequential_1/conv2d_5/Conv2D f4 [32, 3, 3, 32]
0	0xbd9d0324	-0.07666615
1	0xbd029da7	-0.03188863
2	0xbd241678	-0.04006049
3	0x3dc03921	0.093858965
4	0xbdf5cdff	-0.12002181
5	0xbd81b14a	-0.06332643
6	0x3e01d7b2	0.12679937
7	0xbd9e2bc3	-0.07723191
8	0xbde0a517	-0.109689884
9	0xbdb11006	-0.08645634
10	0x3deb2cfe	0.11483191
11	0xbded9442	-0.116005436
12	0xbde08e61	-0.109646566
13	0xbdccd6b1	-0.10001887
14	0x3c8f918e	0.01752546
15	0x3d930d1a	0.07180233
16	0x3de2a876	0.110672876
17	0xbd3f7de5	-0.04675092
18	0xbda37451	-0.0798117
19	0xbd061af5	-0.032740552
20	0xbdeec398	-0.116584
21	0x3dbcced7	0.09219139
22	0xbdf12f89	-0.11776645
23	0xbdfdd6e7	-0.12394505
24	0x3c9285aa	0.017886002
25	0x3d895cc6	0.06707148
26	0x3cb19874	0.02167914
27	0x3d94d38d	0.072669126
28	0xbc9a6f48	-0.018851891
29	0x3d3a8600	0.04553795
30	0x3c821591	0.015879424
31	0x3cd5d6c4	0.026103385
32	0xbd100383	-0.0351596
33	0x3d35ed01	0.044415478
34	0x3e00511d	0.12530942
35	0x3d930aa6	0.071797654
36	0xbd2fa646	-0.04288318
37	0x3d875b3e	0.066092
38	0x3d1c0a1f	0.03809559
39	0xbd4dfc3e	-0.050289385
40	0xbd4b5602	-0.04964257
41	0xbd3434eb	-0.04399578
42	0x3d403a60	0.04693067
43	0xbd7bf7e3	-0.0615157
44	0x3d323c94	0.043514803
45	0xbd77e386	-0.060519718
46	0xbd435194	-0.04768522
47	0x3deea000	0.11651611
48	0xbc4d997e	-0.012548802
49	0x3d6e9b0f	0.058253344
50	0x3c1dafc2	0.009624423
51	0x3d21f61e	0.039541356
52	0x3c0a1920	0.008428842
53	0xbbf1dfb3	-0.0073814034
54	0xbd67b1d8	-0.05656609
55	0xbd9054d8	-0.07047433
56	0x3d4cfb69	0.05004445
57	0x3d0619bd	0.03273939
58	0x3dc88cb9	0.09792466
59	0x3d35262c	0.044225857
60	0xbd85577f	-0.06510829
61	0xbccdae8d	-0.025107646
62	0x3d0366f8	0.03208062
63	0x3da7d8e8	0.081956685
64	0xbd82bd5b	-0.06383773
65	0x3d8ac3ef	0.067756526
66	0x3d7cd54e	0.06172686
67	0x3d67c277	0.05658194
68	0x3ddedd65	0.108820714
69	0xbd10266b	-0.03519289
70	0xbded89db	-0.115985595
71	0x3bf403fb	0.0074467636
72	0xbdc211cf	-0.09476053
73	0xbbdaec74	-0.0066810194
74	0xbdaff59d	-0.08591769
75	0x3d2b7363	0.04185809
76	0xbd973178	-0.07382482
77	0xbd0b9116	-0.03407391
78	0x3d0e09df	0.034677383
79	0x3dab00c1	0.08349753
80	0x3a9bd190	0.0011888016
81	0xbd26ef48	-0.04075554
82	0xbd887ba9	-0.06664211
83	0xbbf54956	-0.007485549
84	0x3d63566c	0.05550234
85	0x3da3b6e5	0.07993869
86	0xbd7be8f1	-0.061501447
87	0xbd2345a7	-0.039861348
88	0x3d44101f	0.047866937
89	0xbc826fbf	-0.015922425
90	0x3d13bdd3	0.036069702
91	0xbd815ea7	-0.063168816
92	0x3c3e1f58	0.011604153
93	0xbe135b61	-0.14390327
94	0x3cfe8bed	0.031072581
95	0x3de4019b	0.11133119
96	0x3dabf3e8	0.08396131
97	0x3ca28d18	0.01984267
98	0x3cce0c2f	0.025152294
99	0xbd2907be	-0.04126715
100	0x3d277cb2	0.040890403
101	0xbcff74ef	-0.031183688
102	0xbde2c8db	-0.110734664
103	0xbc2f527c	-0.010700818
104	0xbd9c82bb	-0.07642122
105	0xbcdb3389	-0.026757972
106	0x3c471634	0.01215129
107	0xbd433886	-0.047661327
108	0x3d33c081	0.043884758
109	0x3be69b28	0.007037539
110	0x3d8cceb0	0.0687536
111	0xba2c3890	-0.0006569708
112	0xbdbffad4	-0.093740135
113	0xbd1efeb8	-0.038817137
114	0xbe10d704	-0.14144522
115	0x3dbbdf71	0.091734774
116	0x3c2b8600	0.01046896
117	0x3cf43496	0.029810231
118	0x3d1ab4e1	0.037770156
119	0xbd1675f2	-0.036733575
120	0xbd9dd3a9	-0.077063866
121	0xbdb986b1	-0.090588935
122	0xbdae22db	-0.08502742
123	0x3bfa544d	0.007639444
124	0x3c780905	0.015138869
125	0xbe0e7608	-0.13912213
126	0x3d9b7ef0	0.07592571
127	0x3c99f6c5	0.018794427
128	0x3da60a06	0.081073806
129	0x3c7d37f5	0.015455236
130	0xbd758f99	-0.0599514
131	0x3dcbecc1	0.099572666
132	0x3d68e015	0.056854326
133	0xbd810956	-0.06300609
134	0x3de2de76	0.11077587
135	0x3e028d04	0.12749106
136	0x3bb00c36	0.0053725494
137	0xbd2c97b2	-0.042136855
138	0x3df3ad83	0.11898329
139	0x3d1f612c	0.03891103
140	0x3d0f6d5a	0.035016395
141	0xbd7d338f	-0.06181675
142	0x3d447eb0	0.04797238
143	0xbc8efb1f	-0.017453728
144	0xbdb49102	-0.088167205
145	0x3d1a043e	0.037601702
146	0x3d96eee6	0.07369785
147	0xbc72ddda	-0.014823401
148	0x3d293287	0.041307952
149	0xbd3f3ef8	-0.04669091
150	0x3da29101	0.079378136
151	0xbcb4a8e6	-0.022053193
152	0x3cc3fc4f	0.023924021
153	0x3d31169f	0.043234464
154	0xbd0e1423	-0.034687173
155	0x3bbc817d	0.005752741
156	0xbcaa0860	-0.020755947
157	0x3d4996b5	0.04921599
158	0xbd81bd65	-0.06334952
159	0x3d9d0954	0.07667795
160	0xbd76e622	-0.060278066
161	0x3aa6caae	0.0012725198
162	0x3ddaddf3	0.10686865
163	0xbdbad878	-0.091233194
164	0x3d9daeac	0.07699332
165	0xbd95336b	-0.07285198
166	0xbcf116af	-0.029429762
167	0xbd9a560b	-0.07535943
168	0x3c59a836	0.0132847335
169	0x3d2f057e	0.042729847
170	0xbd23f1cc	-0.040025517
171	0xb9f85e2a	-0.00047372404
172	0xbe2ab42e	-0.16670296
173	0x3dab95a9	0.08378155
174	0xbd9a7cd9	-0.07543344
175	0x3d424b73	0.047435235
176	0x3d599d4a	0.05312852
177	0xbd18a0ed	-0.037262846
178	0x3d9f136e	0.07767378
179	0x3dd4ad40	0.10384607
180	0xbd3b577f	-0.04573774
181	0xbdf5e37f	-0.12006282
182	0x3c558296	0.013031622
183	0x3c576c72	0.013148414
184	0x3dee56a6	0.11637621
185	0xbc401c25	-0.01172546
186	0xbd64582d	-0.055748153
187	0x3d5e178d	0.05422168
188	0x3cae5b0c	0.021283649
189	0x3d4173b5	0.047229487
190	0xbd9558f3	-0.07292356
191	0xbda0c999	-0.07850952
192	0x3d1bab02	0.038004883
193	0xbdda3b3b	-0.106558286
194	0x3d82dd79	0.06389899
195	0x3c4e1e10	0.01258041
196	0x3da8500b	0.08218392
197	0xbd799f94	-0.0609432
198	0xbd99efe7	-0.07516461
199	0x3cc48301	0.023988249
200	0x3b13cef5	0.0022553776
201	0xbd188f0b	-0.03724579
202	0x3d959b0f	0.07304966
203	0xbdf539fa	-0.11973949
204	0xbd30760c	-0.04308133
205	0xbc7f2f21	-0.015575201
206	0x3d2756e7	0.04085436
207	0x3cdad7f1	0.026714297
208	0x3da564b1	0.08075846
209	0x3d9da42c	0.07697329
210	0x3d47898f	0.04871517
211	0xbb90ab56	-0.004414956
212	0xbd2c30e7	-0.042038824
213	0x3d19fd88	0.037595302
214	0xbd4f4a8e	-0.05060821
215	0x3da38344	0.07984021
216	0xbcb411ce	-0.021981146
217	0xbd87d87d	-0.06633089
218	0xbc4c9ed0	-0.012489036
219	0x3dbd9f1d	0.09258864
220	0xbcd0916d	-0.02545997
221	0x3cf54009	0.02993776
222	0x3dd760b3	0.10516491
223	0xbcb3104c	-0.021858357
224	0x3d25f4cc	0.04051666
225	0x3dd1d5f0	0.102458835
226	0xbd5cdb5a	-0.053920127
227	0xbd284efb	-0.041090947
228	0xbe049254	-0.12946445
229	0xbdccaf47	-0.09994369
230	0xbb8ce9db	-0.0043003387
231	0xbd73fa7d	-0.059565056
232	0x3e169bb2	0.1470783
233	0x3ceb50c2	0.028725032
234	0x3e0425db	0.12905066
235	0x3c04019c	0.008057024
236	0xbd1454fa	-0.036213852
237	0xbd08424b	-0.033266347
238	0x3b8dde0c	0.0043294486
239	0x3db5e643	0.088818096
240	0x3d6a2144	0.05716063
241	0x3d1d89dd	0.038461555
242	0xbd351cff	-0.044217106
243	0x3da4bfca	0.08044393
244	0x3d8e373b	0.06944128
245	0x3d12bfd3	0.03582747
246	0x3d428850	0.04749328
247	0x3ba42c27	0.005010146
248	0x3e09aa67	0.1344391
249	0x3ce263b8	0.02763544
250	0x3e10a2b2	0.14124563
251	0xbcee4e7c	-0.029090159
252	0xbd9b26c8	-0.07575756
253	0x3ce05ed1	0.027388962
254	0x3dd02a4e	0.10164319
255	0xbd4e0e89	-0.05030683

sequential_1/dense_3/BiasAdd/ReadVariableOp f4 [4]
0	0x3d70d1ec	0.058793947
1	0xbd6eef93	-0.058333945
2	0xbd3795f7	-0.044820752
3	0x3d8329fb	0.064044915

sequential_1/dense_2/BiasAdd/ReadVariableOp f4 [128]
0	0xbc9bd22e	-0.01902112
1	0xbd6c3ceb	-0.057675283
2	0xbc2a7c45	-0.010405605
3	0x3c2b6766	0.010461664
4	0xbcaf695b	-0.021412542
5	0x3c96b9fb	0.01839923
6	0xbcbc2d8a	-0.022970933
7	0xbc8ac7f3	-0.016941046
8	0xbd17ad69	-0.03703061
9	0x3bbd28a9	0.0057726693
10	0x3c94259f	0.018084345
11	0xbc4511d3	-0.012028175
12	0x3d8c40be	0.06848286
13	0x3dc3b7a6	0.095565125
14	0xbb62ae69	-0.003458882
15	0xbc7dc304	-0.01548839
16	0x3c9bb6b9	0.019008027
17	0xbcb01cad	-0.021498049
18	0x3d4d72be	0.050158255
19	0x3d8c1cda	0.068414405
20	0xbc043222	-0.008068593
21	0x3cca3133	0.024681663
22	0x3cc42029	0.023941116
23	0x3da93616	0.08262269
24	0x3d5b414f	0.05352908
25	0x39b63b74	0.0003475804
26	0xbd8e1646	-0.06937842
27	0x3d61b5e2	0.055105098
28	0xbc264fde	-0.010150878
29	0xbd557b3f	-0.05211949
30	0xbc58c866	-0.013231372
31	0x3d55dcf0	0.052212656
32	0xbd55d4b3	-0.0522048
33	0xbc4227f5	-0.011850347
34	0x3d192a26	0.03739371
35	0xbc8e11f0	-0.017342538
36	0x3d2431f0	0.040086687
37	0xbb91bdf9	-0.0044476953
38	0xbc7f8245	-0.0155950235
39	0x3baa5500	0.005198121
40	0xbc3bd85b	-0.011465157
41	0xbc7625de	-0.015023677
42	0xbdacf068	-0.08444291
43	0xbd8142d6	-0.06311576
44	0x3ceffef8	0.029296383
45	0x3d773cfb	0.06036089
46	0xbb06d42f	-0.0020573249
47	0x3af3750d	0.0018574313
48	0x3cd1ac73	0.025594926
49	0x3be03197	0.006841849
50	0xbc94167b	-0.018077126
51	0x3da5c5bf	0.08094358
52	0xbbf4f6db	-0.0074757165
53	0x3d6bbd4c	0.057553574
54	0xbb9d37fa	-0.0047979327
55	0xbca00c46	-0.019537102
56	0x3b378512	0.00280029
57	0xbc7056a5	-0.014669095
58	0xbd37843a	-0.044803835
59	0xbc8e05ff	-0.017336844
60	0xbc9be1d6	-0.019028585
61	0xbb0f8073	-0.002189663
62	0x3bcce8b8	0.006253328
63	0xbc866e4e	-0.01641002
64	0xbc91a59f	-0.01777917
65	0xbd3e49c6	-0.046457075
66	0x3d491c33	0.04909916
67	0xbdb1eb26	-0.08687429
68	0xbd4f8cb7	-0.050671306
69	0xbcfb6a4d	-0.030690337
70	0x3da2fdcd	0.07958565
71	0xbb29ca30	-0.0025907867
72	0xbcfb45e4	-0.030672975
73	0x3d3b54bf	0.045735117
74	0x3c80e722	0.015735213
75	0x3d38dfe4	0.045135394
76	0xbcad7b68	-0.021177009
77	0x3d033f81	0.032042984
78	0xbba5bf7f	-0.0050582285
79	0xbd7edc57	-0.06222185
80	0xbc52158c	-0.01282252
81	0xbcecdb47	-0.028913153
82	0x3dac2e9e	0.08407329
83	0xbd3942e1	-0.045229796
84	0x3d96531a	0.07340069
85	0xbc88640c	-0.016649269
86	0x3dcef11a	0.1010458
87	0x00000000	0.0
88	0xbc0e0873	-0.008669007
89	0xbd839640	-0.06425142
90	0x3d3e94bd	0.046528567
91	0xbc8aed5e	-0.016958889
92	0x3db50b4d	0.08840046
93	0xbce4c392	-0.027925286
94	0xbd279d61	-0.040921573
95	0xb9c1083c	-0.00036817964
96	0x3c9f72ab	0.019463858
97	0xbc835be8	-0.016035035
98	0xbc7bb502	-0.01536298
99	0x3d4a41c3	0.04937912
100	0xbcb1ad56	-0.021689098
101	0xbd859644	-0.065228015
102	0xbcb67290	-0.022271425
103	0x3da75cb5	0.08171979
104	0xbc441580	-0.011968017
105	0x3a0d6303	0.0005393477
106	0xbd9f3331	-0.07773436
107	0xbc98d8cc	-0.018658064
108	0x00000000	0.0
109	0xbc6b71f0	-0.014370427
110	0xbd53338c	-0.05156283
111	0xbc71244d	-0.014718127
112	0xbc4b3754	-0.012403328
113	0xbcb2adc6	-0.021811377
114	0xbd8bcc9b	-0.06826135
115	0xbd915714	-0.07096687
116	0xbc081de5	-0.008307909
117	0x3dc662eb	0.09686836
118	0x3cf2e213	0.029648816
119	0x3c898234	0.016785719
120	0x3cdfac8d	0.027303958
121	0x3cbc3add	0.022977287
122	0x3cb07f2c	0.021545015
123	0x3d162cd1	0.036663834
124	0x3d32ed31	0.043683235
125	0xbd63746b	-0.055530947
126	0xbd3c2a42	-0.045938738
127	0xbd200caf	-0.039074596

sequential_1/dense_2/MatMul f4 [128, 128]
0	0x3c7b4aaa	0.0153376255
1	0xbde0a5c6	-0.10969119
2	0xbcb4c146	-0.022064816
3	0x3d42352e	0.047413997
4	0xbe0606f7	-0.13088594
5	0xbbd081b6	-0.006363119
6	0xbdf4971d	-0.11942885
7	0x3b056d5f	0.002035938
8	0xbca8ea53	-0.020619547
9	0x3ddb3d86	0.10705094
10	0x3b6d2b1a	0.003618902
11	0xbe167819	-0.14694251
12	0xbdc8fab9	-0.098134466
13	0xbd170a43	-0.03687502
14	0x3caae248	0.020859852
15	0x3c923916	0.017849486
16	0x3dc42112	0.0957662
17	0xbdd942e8	-0.106084645
18	0xbe16beec	-0.14721268
19	0xbe2b2b2c	-0.16715688
20	0xbd9924d3	-0.07477727
21	0xbca4c111	-0.020111592
22	0xbe261ad7	-0.16221176
23	0xbd6d5bce	-0.05794888
24	0xbdffa2b4	-0.12482205
25	0x3cf7e6bd	0.030261392
26	0x3dd34be0	0.103172064
27	0x3dd4d907	0.10392957
28	0x3e0a6bc6	0.13517675
29	0x3d280514	0.041020468
30	0x3e0aa2c1	0.13538648
31	0xbd86ba72	-0.0657853
32	0xbc475aee	-0.012167675
33	0xbdad30c2	-0.084565654
34	0xbde7b879	-0.11314482
35	0x3d17067c	0.03687142
36	0x3dfec991	0.124407895
37	0xbd671979	-0.056420777
38	0xbd1c1c66	-0.03811302
39	0x3dfcb811	0.123397954
40	0xbc0de46a	-0.008660415
41	0xbd2ca200	-0.042146683
42	0xbcf86a46	-0.030324113
43	0xbbe6c39a	-0.0070423605
44	0xbe288f23	-0.16460852
45	0xbda51406	-0.0806046
46	0x3d291c18	0.041286558
47	0xbe10e483	-0.1414967
48	0xbe0cb2ec	-0.13740128
49	0xbc452d40	-0.012034714
50	0xbd4aca31	-0.04950923
51	0xbe1e9761	-0.15487434
52	0xbdbdee90	-0.09274018
53	0x3da981d0	0.08276713
54	0x3c1813d1	0.009282068
55	0x3da759f3	0.08171453
56	0xbd878c66	-0.06618576
57	0x3d742685	0.059607048
58	0xbd7d1b83	-0.061793815
59	0x3dba1d33	0.090876006
60	0xbe1445ee	-0.14479801
61	0x3d60e9c8	0.05491045
62	0xbd08c5dc	-0.03339182
63	0x3de436c7	0.111432604
64	0xbde71bf6	-0.1128463
65	0xbda80565	-0.08204154
66	0x3e1234bb	0.14277928
67	0xbe08731c	-0.1332516
68	0x3de5f84a	0.11228998
69	0x3de82133	0.11334457
70	0x3dbc21ee	0.09186159
71	0x3e0a48a0	0.13504267
72	0x3debd346	0.115149066
73	0x3d039f08	0.032134086
74	0x3dd649d7	0.104633026
75	0x3e02c1ca	0.12769237
76	0xbe18a9fc	-0.14908594
77	0xbe2c12ef	-0.16804098
78	0xbcb338b8	-0.021877632
79	0xbcaa4828	-0.02078636
80	0xbd907902	-0.070543304
81	0xbdfe79d4	-0.124255806
82	0x3e156018	0.14587438
83	0x3ccb2daa	0.024802048
84	0x3dcd3e6d	0.100216724
85	0x3dbd3db2	0.09240283
86	0xbd47dc13	-0.048793864
87	0xbe0f0fef	-0.13970922
88	0x3da0e15f	0.07855486
89	0x3dd0fbbc	0.102042645
90	0xbda78832	-0.08180274
91	0x3daa8b50	0.08327353
92	0xbc170ab8	-0.009218864
93	0x3e18ad27	0.14909802
94	0x3e09fa20	0.13474321
95	0xbde2c9d1	-0.1107365
96	0x3d1310d0	0.035904706
97	0xbe22bf7f	-0.15893362
98	0x35b07d3f	1.3149473e-06
99	0xbe16209f	-0.14660881
100	0xbd39632a	-0.045260586
101	0xbb7aad9f	-0.003825046
102	0x3cb1ffae	0.021728363
103	0x3dee2e28	0.11629897
104	0xbe00e036	-0.1258553
105	0xbe06c50c	-0.13161105
106	0xbdb46861	-0.08808971
107	0x3dc03853	0.09385743
108	0xbe323037	-0.17401205
109	0xbe16fac2	-0.14744094
110	0xbd2e5930	-0.042565525
111	0x3d9d3fc8	0.07678181
112	0x3c6ad728	0.014333524
113	0x3d0f5515	0.03499325
114	0x3dca20de	0.0986955
115	0x3c128302	0.0089423675
116	0xbd90951d	-0.07059691
117	0x3e020cba	0.12700167
118	0x3d69835e	0.057010047
119	0xbdb478ef	-0.08812129
120	0xbdfb0581	-0.12256909
121	0xbce7391b	-0.028225472
122	0x3deee72f	0.116651885
123	0x3d44a53b	0.04800914
124	0xbcdf2627	-0.027239872
125	0xbd46c3a2	-0.048526414
126	0xbcf46d1c	-0.029837184
127	0x3cbad095	0.022804538
128	0x3e13c88a	0.14431968
129	0x3de35c42	0.11101581
130	0xbd8fd41a	-0.07022877
131	0x3dd32dfc	0.10311505
132	0xbe0b6959	-0.13614406
133	0xbde55ea0	-0.11199689
134	0x3d8e213f	0.06939935
135	0xbdbede23	-0.09319713
136	0x3e18d751	0.14925887
137	0xbbc90872	-0.00613504
138	0xbd987fb2	-0.07446231
139	0xbdbfa404	-0.093574554
140	0x3b8c08c3	0.0042735054
141	0x3e0d13aa	0.13777032
142	0x3de0a9c2	0.10969879
143	0x3daffc12	0.085930005
144	0xbe12f1d4	-0.14350063
145	0x3e10fa49	0.14157976
146	0x3db234a4	0.08701447
147	0x3da253b1	0.07926119
148	0x3d326b3c	0.043559298
149	0xbd15a16a	-0.03653089
150	0x3e1a1053	0.1504529
151	0x3d07e8c0	0.033180952
152	0xbca627be	-0.020282622
153	0xbd4fb49e	-0.05070936
154	0x3dfa5ac5	0.12224344
155	0x3e02b142	0.12762931
156	0xbda1a888	-0.07893473
157	0x3e19c834	0.15017778
158	0xbde0c981	-0.10975934
159	0x3dc55241	0.09634829
160	0xbd9ba3c3	-0.075995944
161	0xbbd2b6bc	-0.006430475
162	0xbcff809c	-0.031189255
163	0x3e1d9d56	0.1539205
164	0x3cb5ad1f	0.022177277
165	0x3e3ea835	0.18618853
166	0xbdd2bff8	-0.102905214
167	0x3e516707	0.20449458
168	0x3d3a8c3c	0.045543894
169	0xbe2153f6	-0.15754685
170	0x3e04b0d3	0.12958078
171	0x3c0b23cf	0.008492424
172	0x3dcdf896	0.1005718
173	0xbd9134fc	-0.07090184
174	0x3ceab2b1	0.02864966
175	0x3ddc00d3	0.10742345
176	0xbd269058	-0.040665
177	0x3de6b6e4	0.11265352
178	0xbca2c2c5	-0.019868264
179	0xbd8f21e1	-0.06988884
180	0x3d4c766e	0.04991763
181	0xbd9ded4c	-0.077112764
182	0xbdaa18c2	-0.083055034
183	0x3dd225af	0.10261094
184	0xbe369ff3	-0.17834453
185	0xb9bc8001	-0.00035953525
186	0x3d55e1e1	0.052217368
187	0xbd727258	-0.059191078
188	0x3bdabd61	0.0066754078
189	0x3dc758e6	0.09733753
190	0xbdf7dc4b	-0.121025644
191	0x3e10c7f8	0.14138782
192	0xbdfc7a2d	-0.12327991
193	0x3dc42abc	0.095784634
194	0xbcb52a5d	-0.022114927
195	0xbd85caf2	-0.06532849
196	0x3cf6b917	0.030117555
197	0xbe10890f	-0.14114784
198	0xbd6577f9	-0.056022618
199	0x3ce478d5	0.027889648
200	0xbe04e467	-0.12977754
201	0x3d824d38	0.063623846
202	0xbc367707	-0.011136777
203	0xbe1c33de	-0.15254161
204	0x3d2cf52e	0.04222601
205	0x3d9df057	0.07711857
206	0xbc791979	-0.015203827
207	0xbd2fcdb3	-0.04292078
208	0x3de38124	0.11108616
209	0xbe08d66e	-0.13363048
210	0xbd0a8529	-0.033818398
211	0x3dd61b03	0.10454371
212	0x3d93c1de	0.072147116
213	0x3e1ff15f	0.1561942
214	0x3d5316fd	0.051535595
215	0x3d299015	0.041397173
216	0x3e0180bb	0.12646763
217	0x3d90aaac	0.07063803
218	0x3df994de	0.12186597
219	0xbc5ca2f0	-0.013466582
220	0x3b13d45c	0.0022556996
221	0x3e093f4c	0.13403052
222	0x3c17f298	0.009274147
223	0x3c9cd79d	0.019145781
224	0xbc58ccd9	-0.013232433
225	0xbdbafd96	-0.09130399
226	0x3d8e01f6	0.06933968
227	0x3d8bc268	0.068241894
228	0x3d54a6fe	0.05191707
229	0xbe1dcfcb	-0.15411298
230	0x3def8d6a	0.116968945
231	0x3caf0a72	0.021367285
232	0x3e171e04	0.14757544
233	0xbdfd03e8	-0.12354261
234	0x3e359ffd	0.17736812
235	0x3e043b9b	0.12913363
236	0xbdfc96fa	-0.12333484
237	0xbde3e85f	-0.11128306
238	0xbd857181	-0.0651579
239	0x3c00060f	0.0078139445
240	0xbd8fe954	-0.07026926
241	0x3e00c1e8	0.1257397
242	0x3d79642e	0.060886554
243	0x3b768266	0.0037614345
244	0x3e637e20	0.22216082
245	0x3d3a7d56	0.045529686
246	0xbd1399ac	-0.036035225
247	0x3d7acf70	0.061232984
248	0x3d24c033	0.040222358
249	0xbcadf4b5	-0.02123485
250	0xbdc20039	-0.09472699
251	0x3e0eaf5b	0.1393408
252	0xbe31d6d2	-0.17367104
253	0xbdf073a9	-0.117408104
254	0x3d9990e1	0.074983366
255	0x3d82528b	0.063634

sequential_1/dense_3/MatMul f4 [4, 128]
0	0x3e376315	0.1790889
1	0xbd86e9fa	-0.06587596
2	0x3d9994a3	0.07499053
3	0xbd91e90b	-0.071245275
4	0x3d96e789	0.073683806
5	0x3d4b35dd	0.049611915
6	0x3e1c35fc	0.15254968
7	0x3e0aaaba	0.1354169
8	0xbe755abc	-0.23960394
9	0xbcc2a225	-0.023758957
10	0x3e066dcc	0.13127822
11	0xbe4ae1c3	-0.19812684
12	0x3d594921	0.053048257
13	0x3e860282	0.26173788
14	0x3e84923e	0.25892824
15	0xbe2d2f68	-0.16912615
16	0xbe6ce707	-0.23135005
17	0x3ce6343c	0.02810108
18	0xbe13e84c	-0.14444083
19	0xbe49dd1c	-0.19713253
20	0x3e470b04	0.19437796
21	0x3e24635d	0.16053529
22	0x3e249bab	0.16075008
23	0xbd8c90b0	-0.068635345
24	0xbe8afa05	-0.27143875
25	0xbe551a72	-0.2081087
26	0xbe8270f6	-0.25476807
27	0x3e64574f	0.2229893
28	0xbe2d5973	-0.16928653
29	0xbd9bf4bf	-0.07615041
30	0xbe36213d	-0.17786117
31	0xbe82e757	-0.25567123
32	0xbe578a51	-0.21048857
33	0xba335ecb	-0.00068424334
34	0x3e019b2c	0.1265685
35	0x3e561c93	0.20909338
36	0x3dc72453	0.09723725
37	0x3e0894ea	0.13338056
38	0x3dd85561	0.1056316
39	0x3c9fb2d4	0.019494452
40	0x3d8be0d3	0.06829991
41	0x3d848aa8	0.06471759
42	0xbd8650d0	-0.065583825
43	0x3c782f46	0.01514799
44	0x3e802040	0.25024605
45	0x3e2d657c	0.16933244
46	0x3df9b85d	0.12193368
47	0x3e12b1a5	0.14325579
48	0x3e2c7ea2	0.16845182
49	0x3d9fee0c	0.07809076
50	0xbcf4b9db	-0.029873779
51	0x3e5a1433	0.21296768
52	0x3d72595e	0.05916726
53	0x3c0b324f	0.008495881
54	0x3e4b5442	0.1985636
55	0x3d11c2b2	0.035586067
56	0xbe8f9410	-0.2804265
57	0x3e17a583	0.14809231
58	0xbe7067eb	-0.23477142
59	0xbe472c55	-0.19450505
60	0xbdfc0bf3	-0.12306967
61	0xbe3b56fd	-0.18294902
62	0xbcbb8468	-0.022890285
63	0x3d8b4ac7	0.06801372
64	0x3d41c55c	0.047307357
65	0xbe42b809	-0.19015516
66	0xbcf2434f	-0.02957311
67	0xbd65bcdc	-0.056088313
68	0x3d970db1	0.07375658
69	0xbe36f840	-0.17868137
70	0x3e0261b7	0.12732588
71	0xbe32ee9a	-0.17473832
72	0x3dacc351	0.08435691
73	0xbe0ad928	-0.13559401
74	0xbe8a4525	-0.27005878
75	0x3d13db73	0.036097955
76	0xbd5269a4	-0.051370278
77	0x3e2d6a92	0.16935185
78	0x3dbe216a	0.09283717
79	0x3bddaa68	0.006764699
80	0x3e3093e5	0.17243917
81	0xbdeb11e8	-0.11478025
82	0x3d7425d5	0.059606392
83	0x3dbe5b4a	0.09294756
84	0xbd00601a	-0.03134165
85	0x3c8bd3c1	0.017068746
86	0x3e4044a9	0.18776192
87	0xbe2c2afc	-0.16813272
88	0xbe34e056	-0.17663702
89	0xbc282f93	-0.010265249
90	0x3e27c99b	0.163855
91	0x3c0f51d3	0.008747536
92	0xbdbe291d	-0.092851855
93	0xbe014fed	-0.12628146
94	0xbc731c7c	-0.014838334
95	0xbcea2fa6	-0.028587174
96	0xbdb0225d	-0.08600304
97	0xbd09c76e	-0.033637457
98	0xbcf9086d	-0.030399526
99	0x3e581e49	0.21105303
100	0xbdad006b	-0.08447345
101	0xbc8357e8	-0.016033128
102	0x3e1b8d3a	0.15190592
103	0xbe4528d6	-0.19253859
104	0xbd793e34	-0.060850337
105	0x3e4cd6da	0.20003834
106	0xbda77fdf	-0.08178686
107	0xbcdb60a6	-0.026779484
108	0x3cb1f598	0.021723554
109	0x3e16572e	0.14681694
110	0xbde35cbf	-0.11101674
111	0xbd838462	-0.064217344
112	0x3d9e5f73	0.07733049
113	0xbcf04da2	-0.029333893
114	0xbe3eef79	-0.18646039
115	0xbd32c004	-0.04364015
116	0x3e12fd72	0.14354494
117	0xbd0d6840	-0.03452325
118	0xbdcbc3be	-0.09949444
119	0x3e409631	0.18807293
120	0xbd71e283	-0.05905391
121	0xbc7160cc	-0.014732551
122	0x3d09faa4	0.033686295
123	0xbe6466b7	-0.22304808
124	0xbe72aa36	-0.23697743
125	0xbdb78267	-0.08960419
126	0x3e02aa48	0.1276027
127	0xbe5cad42	-0.21550468
128	0x3cf6297e	0.030049082
129	0x3e192033	0.1495369
130	0xbce68e65	-0.02814407
131	0xbe0ecf25	-0.13946207
132	0x3e160089	0.14648642
133	0xbe5049e9	-0.20340694
134	0x3d67b4e5	0.056569
135	0x3c03e2eb	0.008049707
136	0xbdacb4f5	-0.08432952
137	0xbe5f7f33	-0.21825866
138	0xbe005e52	-0.1253598
139	0x3d07a418	0.033115476
140	0xbe199557	-0.14998375
141	0xbe0b9ca9	-0.1363398
142	0x3e1e7f67	0.15478288
143	0x3b97ab18	0.0046285503
144	0xbd798c49	-0.060924802
145	0xbdb543e1	-0.088508375
146	0xbe48bae9	-0.1960255
147	0xbdf70057	-0.12060612
148	0xbd6e1691	-0.05812699
149	0xbdbefe4c	-0.09325847
150	0x3e2b07da	0.16702214
151	0xbe5e03f0	-0.2168119
152	0xbe862566	-0.26200408
153	0xbca4ebcd	-0.02013197
154	0x3c982b2e	0.018575277
155	0x3ca6a292	0.020341191
156	0xbdd398a4	-0.10331848
157	0xbd6e42c1	-0.05816913
158	0xbd876911	-0.06611837
159	0xbdfe41cc	-0.124148935
160	0xbd49b537	-0.049245086
161	0xbe354d27	-0.17705213
162	0xbda6b057	-0.08139103
163	0x3dbe489e	0.092911944
164	0xbe5049b6	-0.20340618
165	0xbde57e05	-0.11205677
166	0x3e302517	0.17201649
167	0x3d789e2e	0.060697727
168	0xbdcb8d22	-0.09939028
169	0x3e0b7591	0.13619067
170	0x3e1ae9ed	0.15128298
171	0x3ded4a3e	0.11586426
172	0x3e26d16c	0.16290826
173	0x3e5ce81a	0.21572915
174	0x3d64a412	0.055820532
175	0xbe470177	-0.19434153
176	0xbe3d43f9	-0.18482961
177	0xbe1fd1a5	-0.15607317
178	0xbd658a80	-0.056040287
179	0x3c2aa012	0.01041414
180	0xbe2156c5	-0.15755756
181	0xbdca715d	-0.098849036
182	0xbe3264f9	-0.1742133
183	0xbe259011	-0.16168238
184	0xbc5604ef	-0.0130627
185	0xbde80b32	-0.1133026
186	0x3e0470e3	0.12933688
187	0xbe470bbe	-0.19438073
188	0xbd51fa33	-0.051264
189	0xbc9dbe92	-0.01925591
190	0x3d5f77ab	0.054557484
191	0x3d04cf3e	0.032424204
192	0xb8db47b4	-0.000104560895
193	0x3db53de8	0.08849698
194	0x3dd7c974	0.10536471
195	0x3c6d245f	0.014474004
196	0x3d122218	0.035677046
197	0x3e0f354e	0.13985178
198	0xbdc96f9c	-0.09835741
199	0x3e1ce07c	0.15320009
200	0x3cc7795a	0.024349857
201	0x3d4caecd	0.04997139
202	0x3cd84494	0.026399888
203	0xbe26b254	-0.16278964
204	0xbe386ec0	-0.18010998
205	0x3d2df543	0.042470228
206	0x3d3b3017	0.04570016
207	0x3de40224	0.11133221
208	0x3ce14ec5	0.02750338
209	0xbd0e81f1	-0.03479189
210	0x3c3f36e1	0.011670799
211	0x3e415bf0	0.18882728
212	0xbcb409bc	-0.021977298
213	0x3e20d4fb	0.15706246
214	0xbcb312a2	-0.02185947
215	0x3a973f00	0.0011539161
216	0xbe4cd97d	-0.2000484
217	0x3e2c8a9b	0.16849749
218	0x3dfb15ee	0.12260042
219	0x3c2b30da	0.010448659
220	0xbdefbf90	-0.117064595
221	0xbd93e92d	-0.07222209
222	0x3e32e13f	0.17468737
223	0xbd95dd26	-0.07317571
224	0xbe28b975	-0.16476996
225	0x3e58ee04	0.21184546
226	0xbdaf778b	-0.08567723
227	0x3c9415ec	0.01807686
228	0xbd2138f7	-0.039360967
229	0x3e1a4a1f	0.15067337
230	0xbe41242a	-0.18861452
231	0xbe1db720	-0.15401888
232	0x3e22a260	0.15882254
233	0x3d7c556d	0.061604906
234	0x3d05c24f	0.03265601
235	0x3db955a3	0.09049537
236	0xbd4366c0	-0.047705412
237	0xbdcdb7e1	-0.10044838
238	0x3ca52fa1	0.020164313
239	0xbdd23383	-0.10263731
240	0xbd4e9611	-0.050436083
241	0x3e085978	0.1331538
242	0x3e384a35	0.17997058
243	0x3dfb19e7	0.122608
244	0x3d689927	0.056786682
245	0xbe8ce098	-0.275151
246	0xbe94fd9a	-0.29099733
247	0xbcc20ba6	-0.023687195
248	0x3ded4324	0.11585072
249	0xbe7da66c	-0.24770516
250	0xbe552123	-0.20813422
251	0xbdf32409	-0.118721075
252	0xbdef5d1e	-0.116876826
253	0x3e099935	0.1343735
254	0x3e5c5084	0.2151509
255	0x3d5ab6cf	0.053396996
