app/src/main/ml/xray.tflite (tflite, 148836 bytes, 10 tensors)

sequential_3/conv2d_9/Relu;sequential_3/conv2d_9/BiasAdd;sequential_3/conv2d_11/Conv2D;sequential_3/conv2d_9/Conv2D;sequential_3/conv2d_9/BiasAdd/ReadVariableOp f4 [32, 3, 3, 3]
0.0010027514 0.00030165794 0.0007519684 -9.828133e-05 0.00053856446 -0.0003394972 0.00049074134 0.0005780585
0.00031983433 -0.00060539035 -0.0007135113 -0.0001206405 -0.00012726059 0.00055475347 -0.0002290618 -0.00043239677
-0.0004900726 -1.9818293e-05 -0.00059498503 -2.9787416e-05 -4.2392803e-06 -0.00013684153 0.00018581844 -0.00012449885
-0.00019198596 -0.0004421786 5.336538e-05 -6.016192e-05 0.00010863866 -0.0001883792 0.0011160502 0.0012185685
0.0005210729 -0.00016847618 0.00065082 0.00051208027 -0.00015049582 -0.0004990485 0.00019179107 -0.0007583293
-0.00026273564 -0.00042964672 -6.627442e-05 0.00040153277 0.00021848787 0.00052872085 -0.00013512261 0.00041073174
-0.00094897684 7.298724e-05 -0.0005455604 -0.00040215757 0.00035495724 -1.5041776e-05 -0.00025540797 -0.00015613934
-0.00079368544 -0.00046260413 -6.8999565e-05 -0.00066595344 -0.00025290405 0.00047316722 0.0005368455 -9.2040726e-05
0.0003890601 -0.0004086898 -5.6928504e-05 0.00019772991 -2.815964e-05 0.0004454297 0.00012342836 0.00078545697
0.00025282425 0.0003193597 -6.185858e-05 0.0004510074 0.00052324205 -0.00030703208 0.00042198578 0.00019052625
0.00022120558 -0.0003404364 -0.0005380652 -0.00020637065 -0.00019262181 -0.0005064043 -0.0002710778 -0.0003034885
-0.0002999972 0.00019781476 -0.00037728966 -2.7242273e-05 5.2312487e-05 9.5155316e-05 -0.0004884427 0.00019502109
-0.000504899 -0.00016394442 0.00019933036 0.00010223888 -4.7782283e-05 -0.00011188192 -0.00012483317 0.00042659894
-0.00028582595 -0.00050403643 -0.0005394623 -0.000121722835 0.00047252627 0.0006164896 0.00047552708 0.0005652967
0.0002839787 0.0007265297 0.00031131168 6.757566e-05 -0.0003090127 3.1056384e-06 0.00032710924 -0.00029117393
-0.00019504286 -0.0004978739 0.00014479333 -0.00010103266 0.0004649371 0.00026617997 2.9901605e-05 -0.0006325221
-0.00034564047 -0.000497582 0.000109308465 -0.00033554286 4.4339806e-05 0.00016919039 9.696171e-06 0.00020197047
0.0006738563 0.00068282813 -0.00034054075 -0.000111340356 0.00016214068 0.0003823427 0.0006724762 -0.00017965808
0.00054100994 0.0004603403 0.00010706217 0.0009606963 0.0005825961 -3.2481767e-05 0.000106095125 -0.00035741975
2.350217e-05 -0.00069821026 5.6769266e-05 -0.00068306824 0.00072127575 -7.725244e-05 0.0007824193 -0.0006285844
0.00021625875 0.0003008431 -0.00024502448 -0.00017321568 0.0003767418 0.00023325188 -0.0001491259 -0.000251834
0.00025627945 -4.0324023e-05 -0.00046793526 -0.00037725875 3.0596984e-05 0.00044029125 0.00084848906 0.00052256696
0.00043253493 0.00027424595 7.42176e-05 0.00034760934 -6.0328035e-05 -0.00016909212 0.0003183053 0.00032439694
-0.00074898585 -8.696096e-05 0.00085198664 0.0002641372 0.000785899 0.0011107951 0.00030688965 0.0011847414
-0.00021824706 0.00031637467 8.1739054e-05 -0.00018506021 9.2464885e-05 0.00013462617 -0.00103612 -0.0005367257
-0.00044144745 -0.0006533925 0.00014822175 0.00022222832 -5.4959623e-05 0.00032376722 0.00067760755 -0.00027528184
-0.0004351673 0.0001637421 -0.00052323384 7.030258e-05 -0.00039109093 -0.00052099105 -0.0004609625 0.0003460246
-0.0003960657 0.0002022822 -0.00013413346 -0.00045472756 -0.00021344711 -0.00026714543 0.00071815023 0.00051517604
0.0010112182 0.00021235256 -0.00057652366 0.00024680654 -9.7120275e-05 -0.00022250526 -0.00031640092 6.339115e-05
0.00056975096 7.208052e-05 -0.00051249645 -3.2919463e-05 4.2599957e-05 -0.000108246815 -0.0006824645 -0.00033274977
-0.0005262378 8.035971e-06 -0.0003645495 3.0110043e-05 0.00025058634 -7.3019524e-05 0.0006995199 -0.00015315262
0.00052097224 -0.00012657007 -0.00070028944 -0.0006551353 0.00080575864 0.00047845228 0.0006508137 -0.00026545094
00000000: c16e 833a d827 9e39 bf1f 453a 631c ceb8
00000010: 732e 0d3a 8bfe b1b9 18a5 003a d988 173a
00000020: 70af a739 0fb3 1eba ef0a 3bba 6000 fdb8
00000030: 4171 05b9 e06c 113a 4f30 70b9 50b3 e2b9
00000040: 3778 00ba 763f a6b7 c5f8 1bba fddf f9b7
00000050: 243f 8eb6 1e7d 0fb9 42d8 4239 e88b 02b9
00000060: d74f 49b9 35d4 e7b9 a4d4 5f38 5f56 7cb8
00000070: f0d4 e338 a887 45b9 6e48 923a 60b8 9f3a
00000080: 9c98 083a fba8 30b9 ca9b 2a3a 203d 063a
00000090: 6ace 1db9 94d2 02ba 861b 4939 9eca 46ba
000000a0: c8bf 89b9 3542 e1b9 cffc 8ab8 d184 d239
000000b0: e419 6539 db99 0a3a b3af 0db9 7b57 d739
000000c0: c2c4 78ba ba10 9938 f003 0fba add8 d2b9
000000d0: 8e19 ba39 f05b 7cb7 47e8 85b9 56b9 23b9
000000e0: 540f 50ba ad89 f2b9 dcb3 90b8 6193 2eba
000000f0: 3598 84b9 6e13 f839 17bb 0c3a fd05 c1b8
00000100: c3fa cb39 6b45 d6b9 84c6 6eb8 b855 4f39
00000110: 5e38 ecb7 9088 e939 8c6c 0139 20e7 4d3a
00000120: 7f8d 8439 bc6f a739 12ba 81b8 3075 ec39
00000130: 2e2a 093a 26f9 a0b9 f93d dd39 00c8 4739
00000140: 6cf3 6739 9a7c b2b9 f20c 0dba 3365 58b9
00000150: 86fa 49b9 38c0 04ba 721f 8eb9 891d 9fb9
00000160: f148 9db9 7f6c 4f39 f6ce c5b9 5686 e4b7
00000170: 1b6a 5b38 1f8e c738 d60a 00ba 937e 4c39
00000180: 335b 04ba 7fe8 2bb9 5603 5139 1569 d638
00000190: d669 48b8 26a2 eab8 a6e5 02b9 24a9 df39
000001a0: e9da 95b9 5021 04ba b46a 0dba 7345 ffb8
000001b0: 67bd f739 eb9b 213a 2a50 f939 6b30 143a
000001c0: fae2 9439 9574 3e3a 8c37 a339 68b7 8d38
000001d0: fc02 a2b9 766a 5036 dc7f ab39 b4a8 98b9
000001e0: 6b84 4cb9 c083 02ba aad3 1739 7fe1 d3b8
000001f0: cdc2 f339 128e 8b39 35d5 fa37 d7cf 25ba
00000200: 1437 b5b9 2a70 02ba 893c e538 cdeb afb9
00000210: 81f9 3938 b368 3139 bdac 2237 09c8 5339
00000220: bba5 303a d2ff 323a 9b8a b2b9 667f e9b8
00000230: 4f04 2a39 2b75 c839 1d49 303a 9962 3cb9
00000240: 90d2 0d3a d459 f139 9186 e038 3dd7 7b3a
00000250: 5db9 183a 083d 08b8 637f de38 1164 bbb9
00000260: 8726 c537 1908 37ba 891b 6e38 ef0f 33ba
00000270: ff13 3d3a 9702 a2b8 451b 4d3a 96c7 24ba
00000280: 84c3 6239 7aba 9d39 a176 80b9 3ba1 35b9
00000290: 6e85 c539 1395 7439 ae5e 1cb9 9608 84b9
000002a0: 3f5d 8639 9721 29b8 3555 f5b9 d0ca c5b9
000002b0: 4355 0038 e4d6 e639 236d 5e3a e0fc 083a
000002c0: dbc5 e239 abc8 8f39 45a5 9b38 563f b639
000002d0: bc08 7db8 524e 31b9 37e2 a639 d213 aa39
000002e0: 9757 44ba cf5e b6b8 db57 5f3a e57b 8a39
000002f0: ca04 4e3a 1998 913a 08e6 a039 5349 9b3a
00000300: 40d9 64b9 17df a539 526b ab38 b90c 42b9
00000310: b5e9 c138 702a 0d39 6bce 87ba 0db3 0cba
00000320: 1372 e7b9 6e48 2bba f96b 1b39 f605 6939
00000330: 7284 66b8 4dbf a939 79a1 313a b453 90b9
00000340: 2b27 e4b9 2fb2 2b39 a129 09ba 696f 9338
00000350: 560b cdb9 1e93 08ba 57ad f1b9 a36a b539
00000360: 0aa7 cfb9 b71b 5439 2da6 0cb9 8068 eeb9
00000370: c6d0 5fb9 a70f 8cb9 3f42 3c3a e10c 073a
00000380: da8a 843a f5aa 5e39 d921 17ba d065 8139
00000390: 0dad cbb8 4d50 69b9 9de2 a5b9 ddf0 8438
000003a0: 575b 153a ef29 9738 0e59 06ba 0113 0ab8
000003b0: 5bad 3238 9102 e3b8 6be7 32ba eb74 aeb9
000003c0: 39f3 09ba 3cd2 0637 0121 bfb9 d394 fc37
000003d0: 2161 8339 0f22 99b8 fc5f 373a 9897 20b9
000003e0: db91 083a e5b7 04b9 a193 37ba 63bd 2bba
000003f0: 8c39 533a c7d8 fa39 5e9b 2a3a 392c 8bb9

sequential_3/conv2d_9/BiasAdd/ReadVariableOp f4 [32]
-0.09398723 -0.12381559 -0.053993303 -0.015422976 -0.10730693 -0.24043618 -0.12894335 -0.031611275
-0.06606239 0.051752567 0.12076915 0.0027664679 0.19824973 0.18937427 -0.106437355 0.0038166293
0.0021099853 -0.08379929 -0.07683866 0.038099892 0.079127595 -0.13827167 -0.0048811096 -0.08891646
0.079777345 -0.05272853 -0.08118543 0.08620447 0.049216658 0.08851318 -0.043579873 -0.12507573
00000000: 607c c0bd 0793 fdbd 1528 5dbd a6b0 7cbc
00000010: bcc3 dbbd e734 76be ba09 04be d37a 01bd
00000020: b84b 87bd 80fa 533d d155 f73d a14d 353b
00000030: fa01 4b3e 54eb 413e d4fb d9bd 6a20 7a3b
00000040: ae47 0a3b f69e abbd 965d 9dbd a20e 1c3d
00000050: a60d a23d 1797 0dbe b7f1 9fbb d519 b6bd
00000060: 4e62 a33d dff9 57bd 8c44 a6bd f88b b03d
00000070: 6897 493d 6646 b53d cf80 32bd da13 00be

sequential_3/conv2d_10/BiasAdd/ReadVariableOp f4 [32]
0.07332694 -0.0055425153 -0.0072756177 0.040309366 -0.008843595 -0.098689556 -0.0030041228 -0.014354248
0.025662929 -0.014197026 -0.025215339 -0.116616756 -0.036969773 -0.026863117 -0.011420924 -0.020218406
0.033750966 -0.031632982 -0.05304063 0.0071935365 -0.010194468 -0.14667873 -0.0122447945 -0.006208096
0.025493305 0.009409223 -0.015334093 -0.041352443 0.014745144 -0.0063656787 -0.035493493 -0.010759129
00000000: 6f2c 963d fd9d b5bb 4e68 eebb 6f1b 253d
00000010: bae4 10bc c01d cabd d1e0 44bb 142e 6bbc
00000020: 103b d23c a59a 68bc 6690 cebc c4d4 eebd
00000030: 9e6d 17bd 0a10 dcbc d41e 3bbc 12a1 a5bc
00000040: 743e 0a3d 9691 01bd 2241 59bd c2b7 eb3b
00000050: b306 27bc f332 16be 649e 48bc 496d cbbb
00000060: 56d7 d03c 2429 1a3c d93b 7bbc 2e61 29bd
00000070: 9e95 713c 2f97 d0bb a061 11bd 0f47 30bc

sequential_3/conv2d_11/BiasAdd/ReadVariableOp f4 [32]
0.007965198 -0.0027902343 0.06688581 -0.0060273823 -0.010883963 -0.012938039 -0.027182786 0.055894114
-0.030287411 -0.04162872 -0.018681131 -0.008390012 -0.017595053 -0.04731487 0.015419619 -0.0071354345
-0.013044756 -0.0070124557 -0.0267867 0.07135678 0.04145641 0.045480784 0.022039114 -0.013330913
-0.024874112 -0.07647089 0.08316029 -0.011947295 -0.010881645 -0.0022210777 0.09199776 -0.027738685
00000000: 7680 023c 5ddc 36bb 6dfb 883d 5981 c5bb
00000010: a652 32bc 12fa 53bc 6fae debc 3af1 643d
00000020: 4e1d f8bc e082 2abd 2c09 99bc 4376 09bc
00000030: 8023 90bc 3dcd 41bd 92a2 7c3c 5dd0 e9bb
00000040: acb9 55bc bec8 e5bb c86f dbbc 8123 923d
00000050: 32ce 293d 0f4a 3a3d 5f8b b43c e769 5abc
00000060: cbc4 cbbc c59c 9cbd f14f aa3d 96be 43bc
00000070: ed48 32bc 808f 11bb 5269 bc3d 3d3c e3bc

sequential_3/conv2d_10/Conv2D f4 [32, 3, 3, 32]
0.26129186 0.15976727 -0.08160687 -0.08760265 0.12712912 -0.020050142 0.02352755 0.3061492
0.208381 0.20758526 -0.053625777 0.25156274 0.0017259226 0.121644005 0.08431913 0.05282784
0.013770937 0.14778385 0.012565178 0.15910359 0.0074122082 0.17311315 0.20681514 -0.0716701
0.030613042 0.0070967665 0.009462866 0.31898832 -0.08200487 0.3022831 0.13692486 0.011548499
0.25836575 0.061238963 -0.080147736 0.09482941 -0.022511346 -0.08899469 -0.017092947 0.09816139
-0.0033862842 0.100726895 0.055823456 0.06120555 0.19451302 0.013073498 0.06540609 -0.11978538
-0.109810054 0.023589753 -0.103006646 0.12079616 -0.087008215 -0.08167609 0.19786929 -0.0060255537
-0.3232329 0.04887946 -0.15904686 0.12917165 -0.068215676 0.25596234 0.061317045 -0.0705281
-0.044603206 -0.103876576 0.075718366 -0.0420192 -0.07797141 -0.07813845 0.03796706 0.00042977877
-0.0317321 0.014376741 0.113142885 0.0784554 0.031326015 0.1621674 -0.08718686 -0.027783168
-0.02288186 -0.106432684 -0.07991598 -0.16377199 0.015790058 -0.038378693 -0.052809097 -0.040023997
0.016457494 -0.050723664 0.030034397 0.034204695 0.12925063 -0.111774035 0.08964841 0.11283011
-0.05434418 -0.077141255 -0.095319465 0.085715234 0.07882117 -0.03771607 0.032322057 0.13049904
-0.09714121 -0.03397482 0.09994528 0.088095546 0.012300134 0.15629423 0.10093323 0.008558833
-0.011902308 -0.089774184 0.046785243 0.0912642 -0.008984579 0.097739294 -0.026781486 -0.12365736
-0.22182548 -0.07037741 -0.07852501 -0.00574834 -0.04843732 0.027603425 0.018226169 -0.06961921
-0.107469276 -0.18518756 0.0387249 0.047457885 0.027238116 -0.1050571 -0.11000347 -0.035279516
-0.12855883 0.047550276 -0.017226227 -0.0504944 0.058036692 0.0950552 -0.12237496 -0.05378262
0.00563052 -0.12694304 -0.003983257 -0.07131522 0.1479226 -0.14556274 -0.11583808 -0.093623884
-0.124896236 -0.023849692 -0.007620017 -0.071369186 0.020306433 0.2062089 -0.022086738 -0.10020135
-0.13216497 -0.0996357 0.05753991 0.04957317 -0.009059544 -0.010628123 -0.0101186475 -0.19920322
0.08320596 -0.07452472 0.031483427 -0.17878641 -0.016937038 0.2127582 0.016389705 0.019910565
-0.07817271 0.0018760514 0.0030409913 0.033541694 0.0011851373 0.06528605 0.023690298 0.013449789
-0.0011307826 0.09728347 -0.03571331 -0.25339 0.14645004 -0.109158464 0.055236727 0.050733067
-0.06018388 0.0056909686 0.031407814 0.06594661 -0.11391794 0.068762615 -0.014825335 0.0103586465
-0.06654133 0.04182117 0.03126107 0.07977889 0.09277869 0.08707052 0.0067018033 -0.0853015
-0.05943426 -0.11523693 0.012218961 -0.07348645 -0.12364032 0.095528 -0.13362889 -0.10425912
-0.15256092 -0.07452426 0.0813785 -0.074067056 -0.11769686 0.012452959 0.011342811 0.05184938
-0.10463546 -0.10165052 0.060747206 0.0966388 0.029018704 -0.016320493 -0.06441696 -0.14984609
0.1458376 -0.026373304 0.10772205 -0.07820769 0.001947787 0.06377202 -0.0731617 0.026176358
-0.0005009372 -0.10311087 -0.004497898 0.053327307 -0.12946565 0.027711153 -0.03020587 -0.064393155
0.029305734 -0.037872784 0.0050032143 -0.10294602 0.10482903 0.037081957 -0.025328187 -0.04788414
00000000: 0cc8 853e 089a 233e 8121 a7bd 0569 b3bd
00000010: 232e 023e 3240 a4bc d9bc c03c 97bf 9c3e
00000020: d461 553e 3b91 543e b4a6 5bbd d5cc 803e
00000030: 5a38 e23a 7e20 f93d 82af ac3d 0162 583d
00000040: 7f9f 613c a654 173e 2dde 4d3c 0dec 223e
00000050: 1ce2 f23b 9344 313e 59c7 533e c6c7 92bd
00000060: 34c8 fa3c fe8b e83b 230a 1b3c 7052 a33e
00000070: 2bf2 a7bd dac4 9a3e 0836 0c3e ea35 3d3c
00000080: 8448 843e b5d5 7a3d 7f24 a4bd ec35 c23d
00000090: b769 b8bc d942 b6bd 8206 8cbc d708 c93d
000000a0: 6cec 5dbb e749 ce3d 23a7 643d acb2 7a3d
000000b0: 6c2e 473e 3a32 563c a1f3 853d 0a52 f5bd
000000c0: 18e4 e0bd 4c3f c13c 26f5 d2bd fa63 f73d
000000d0: 5d31 b2bd cb45 a7bd 3f9e 4a3e 0272 c5bb
000000e0: c87e a5be d435 483d 2edd 22be 9345 043e
000000f0: a9b4 8bbd 7f0d 833e 9527 7b3d 0971 90bd
00000100: dab1 36bd 3ebd d4bd 3b12 9b3d 531c 2cbd
00000110: 79af 9fbd 0d07 a0bd 5983 1b3d ee53 e139
00000120: 85f9 01bd 6c8c 6b3c 75b7 e73d 3aad a03d
00000130: b54f 003d 360f 263e 068f b2bd 8799 e3bc
00000140: bd72 bbbc 61f9 d9bd fdaa a3bd d8b3 27be
00000150: 275a 813c fa32 1dbd 5a4e 58bd 34f0 23bd
00000160: ded1 863c 9ec3 4fbd b20a f63c 391a 0c3d
00000170: 475a 043e c9e9 e4bd 9699 b73d 7913 e73d
00000180: 0198 5ebd 3cfc 9dbd da36 c3bd 788b af3d
00000190: fe6c a13d 2a7c 1abd 2264 043d 8aa1 053e
000001a0: f9f1 c6bd 2e29 0bbd 1cb0 cc3d 706b b43d
000001b0: 8086 493c 980b 203e 15b6 ce3d 593a 0c3c
000001c0: e601 43bc 87db b7bd e2a1 3f3d bae8 ba3d
000001d0: 0e34 13bc 8a2b c83d d964 dbbc 1240 fdbd
000001e0: 3826 63be 0822 90bd b8d1 a0bd 925c bcbb
000001f0: 3666 46bd 9420 e23c 0c4f 953c 8494 8ebd
00000200: da18 dcbd cfa1 3dbe 009e 1e3d 3363 423d
00000210: 7822 df3c 2d28 d7bd 8049 e1bd 4181 10bd
00000220: eda4 03be 14c4 423d 041e 8dbc 37d3 4ebd
00000230: e2b7 6d3d 4dac c23d b99f fabd 2a4b 5cbd
00000240: 3a80 b83b 5bfd 01be fb85 82bb b70d 92bd
00000250: 0679 173e 660e 15be 843c edbd e1bd bfbd
00000260: 99c9 ffbd 6e60 c3bc 56b1 f9bb 022a 92bd
00000270: ad59 a63c 6d28 533e 3fef b4bc 5e36 cdbd
00000280: 4156 07be cd0d ccbd f8ae 6b3d 3c0d 4b3d
00000290: 7b6e 14bc 9421 2ebc afc8 25bc eefb 4bbe
000002a0: e367 aa3d 6ba0 98bd c4f4 003d c913 37be
000002b0: 8bbf 8abc 49dd 593e b443 863c 7b1b a33c
000002c0: 0419 a0bd d7e5 f53a 5e4b 473b 0463 093d
000002d0: 9c56 9b3a b1b4 853d 2812 c23c 815c 5c3c
000002e0: c536 94ba 8e3c c73d 1f48 12bd 56bc 81be
000002f0: 00f7 153e 798e dfbd e83f 623d 7acd 4f3d
00000300: 5f83 76bd 4e7b ba3b 7ba5 003d 040f 873d
00000310: cf4d e9bd 6ad3 8c3d f6e5 72bc 50b7 293c
00000320: d246 88bd ad4c 2b3d 9c0b 003d 1d63 a33d
00000330: c102 be3d 0752 b23d cd9a db3b 8eb2 aebd
00000340: 5771 73bd 5701 ecbd 0932 483c 1080 96bd
00000350: 2337 fdbd 2fa4 c33d 03d6 08be ce85 d5bd
00000360: ee38 1cbe 2da0 98bd c5a9 a63d 78b0 97bd
00000370: 0d0b f1bd 7f07 4c3c 33d7 393c 0460 543d
00000380: 1e4b d6bd 262e d0bd 10d2 783d 90ea c53d
00000390: a2b8 ed3c 8eb2 85bc 0aed 83bd 4171 19be
000003a0: 7456 153e d40c d8bc 619d dc3d 5a2b a0bd
000003b0: e34c ff3a e89a 823d cdd5 95bd cd6f d63c
000003c0: 5451 03ba cb2b d3bd 1a63 93bb bc6d 5a3d
000003d0: a592 04be 8002 e33c 4d72 f7bc 8fe0 83bd
000003e0: 9412 f03c 7e20 1bbd 01f2 a33b 5dd5 d2bd
000003f0: 9ab0 d63d 40e3 173d 0f7d cfbc 2922 44bd

sequential_3/conv2d_11/Conv2D f4 [32, 3, 3, 32]
0.028385723 0.010674372 -0.084438875 0.061648924 0.018902108 -0.085917704 -0.038613353 -0.10439377
-0.09301223 -0.04273174 0.10899082 -0.083058015 0.021243587 -0.036741145 -0.030177146 0.05608489
-0.072970785 -0.05169446 0.03627409 0.015669288 -0.04763233 -0.15613331 -0.1043914 0.07571285
-0.084144026 -0.026307698 0.04070017 0.026424905 -0.13265812 -0.07223645 -0.0456672 0.060598195
-0.0704356 -0.046131514 -0.063390814 -0.050463278 0.09411474 -0.007666521 0.020543166 0.021816958
-0.15024811 -0.052629877 -0.018878147 0.0112920785 -0.04601236 -0.034106232 -0.043214396 0.054110315
0.06372217 0.014757999 -0.021605734 -0.09131725 -0.058275167 -0.031812444 0.08567624 -0.08233688
0.00046394538 -0.07267173 0.08555892 0.08085303 0.050241802 0.0033298589 0.0055551156 0.029862747
-0.03760394 -0.09420735 -0.053421397 0.09514309 0.05299786 -0.11748898 0.04493761 0.009553815
0.04811749 0.14745918 -0.069384195 -0.0061907913 -0.023459345 -0.09938945 -0.042801414 -0.04907393
0.052614365 0.0062410734 -0.10782656 0.06399443 -0.06769782 0.1397963 0.035595275 0.07030297
-0.020473562 -0.15397617 0.092298605 -0.046070654 0.06584911 -0.059980396 -0.06421248 -0.090962574
-0.035349917 0.059201002 0.046932243 -0.0195132 -0.0144029725 -0.10361551 0.036501125 -0.05902438
-0.0459525 0.04841599 0.098000176 -0.072460875 0.039157156 -0.020086307 -0.07566211 0.076119594
0.07091531 0.07115206 -0.1257216 0.011692706 -0.07747349 -0.025763897 -0.014244776 -0.06517618
-0.052429017 -0.08142722 0.07144536 0.019605061 -0.01173699 -0.12997356 -0.03645638 0.08039253
-0.032268707 -0.0118173435 0.08714163 0.058105707 -0.077097535 0.067768455 -0.044328183 -0.02078702
-0.036645036 0.02141738 0.0739073 0.012301079 0.024046678 0.0069069886 0.077451356 -0.08307819
-0.04104081 0.09482898 -0.041977994 -0.005361 0.06870331 -0.10109142 0.046575412 -0.034068055
-0.06834027 -0.1204924 0.0725755 -0.03028065 -0.0043823645 -0.025544904 -0.092371166 -0.066091895
0.03239711 -0.04533296 -0.020977743 -0.0829584 -0.0035491588 -0.011109084 -0.04411271 0.027646216
0.014135435 0.038054306 0.04547184 -0.033398695 0.036184404 0.027613409 0.04396863 0.07340732
0.119502194 -0.10718415 0.00579344 0.00472196 0.07942507 0.04243408 -0.058788586 -0.09532257
-0.043455463 0.09810822 0.07145866 -0.020993646 -0.026233938 0.0032722584 -0.0013486195 -0.10259201
0.10877398 -0.009533763 0.03241279 -0.09253235 -0.09783146 -0.09066592 -0.00788945 0.033299275
0.116391055 -0.014917498 0.09840393 -0.017648185 -0.0127607575 -0.08677267 0.04910744 -0.018541193
-0.07580774 -0.064940035 -0.07152299 -0.030005362 0.015204541 0.04515498 -0.042572573 -0.0056896396
0.04516288 0.018479778 0.013297077 0.07903204 -0.071646206 0.004170394 -0.028929358 0.09756057
-0.017992057 0.052216083 0.09511061 -0.021178266 0.05917634 -0.103379875 -0.005335264 0.06740211
-0.0009609728 0.15605845 -0.08113685 0.066085786 -0.05917413 -0.002845696 -0.0009165664 0.040293418
0.083616525 0.008240139 0.0033054284 -0.07135997 -0.05490038 0.020032534 -0.073731825 0.06342156
0.045147516 0.07565547 -0.07778945 0.06463395 -0.0085903425 0.06169223 0.08971971 -0.05203005
00000000: 2d89 e83c 90e3 2e3c 4aee acbd 9583 7c3d
00000010: 98d8 9a3c 9ff5 afbd 0929 1ebd 67cc d5bd
00000020: 327d bebd 7a07 2fbd 9436 df3d 521a aabd
00000030: 0807 ae3c e27d 16bd 1036 f7bc 45b9 653d
00000040: b571 95bd 92bd 53bd 2494 143d e15c 803c
00000050: 1e1a 43bd 69e1 1fbe 29cb d5bd 570f 9b3d
00000060: b453 acbd 3e83 d7bc 39b5 263d 0b79 d83c
00000070: 88d7 07be b4f0 93bd 880d 3bbd d035 783d
00000080: 8a40 90bd 66f4 3cbd 0bd3 81bd 95b2 4ebd
00000090: 3bbf c03d 7037 fbbb 244a a83c 7ab9 b23c
000000a0: a4da 19be 6d92 57bd 58a6 9abc 6902 393c
000000b0: 7577 3cbd fab2 0bbd 9401 31bd c7a2 5d3d
000000c0: c580 823d 89cb 713c 82fe b0bc 8a04 bbbd
000000d0: f1b1 6ebd c44d 02bd 0677 af3d 3da0 a8bd
000000e0: b23d f339 ead4 94bd 8439 af3d 4696 a53d
000000f0: 59ca 4d3d c339 5a3b b007 b63b b8a2 f43c
00000100: 9706 1abd c8ef c0bd 65d0 5abd 61da c23d
00000110: 4914 593d 109e f0bd 8010 383d 9b87 1c3c
00000120: d816 453d 8aff 163e 4d19 8ebd 1fdc cabb
00000130: d02d c0bc b28c cbbd 8950 2fbd bf01 49bd
00000140: 2982 573d eb81 cc3b 2cd4 dcbd 830f 833d
00000150: 28a5 8abd c326 0f3e 5acc 113d 01fb 8f3d
00000160: 2cb8 a7bc eeab 1dbe 0d07 bd3d 95b4 3cbd
00000170: e6db 863d 01ae 75bd d581 83bd 964a babd
00000180: 13cb 10bd c07c 723d 063c 403d 25da 9fbc
00000190: 72fa 6bbc 5e34 d4bd 3482 153d 8cc3 71bd
000001a0: b038 3cbd d84f 463d 51b4 c83d 5e66 94bd
000001b0: 4163 203d 0a8c a4bc bcf4 9abd 97e4 9b3d
000001c0: 0c3c 913d 2cb8 913d 2abd 00be c392 3f3c
000001d0: 6caa 9ebd cf0e d3bc ec62 69bc 177b 85bd
000001e0: cfbf 56bd 50c3 a6bd f251 923d cb9a a03c
000001f0: 814c 40bc ca17 05be 4953 15bd d7a4 a43d
00000200: 312c 04bd 889d 41bc 5077 b23d 4000 6e3d
00000210: 50e5 9dbd 30ca 8a3d 7891 35bd 8a49 aabc
00000220: 1b19 16bd 8073 af3c b65c 973d 778a 493c
00000230: 8afd c43c 0554 e23b d19e 9e3d e624 aabd
00000240: 691a 28bd b235 c23d 1ef1 2bbd 54ab afbb
00000250: 52b4 8c3d 0509 cfbd dcc5 3e3d f28a 0bbd
00000260: fcf5 8bbd b8c4 f6bd 77a2 943d 200f f8bc
00000270: f099 8fbb 8c43 d1bc 182d bdbd 305b 87bd
00000280: d5b2 043d 0eaf 39bd 84d9 abbc 18e6 a9bd
00000290: 0199 68bb e002 36bc 87af 34bd 517a e23c
000002a0: 5098 673c d5de 1b3d ae40 3a3d 12cd 08bd
000002b0: 1936 143d 8435 e23c 7318 343d 9456 963d
000002c0: 91bd f43d 5d83 dbbd e6d6 bd3b acba 9a3b
000002d0: 9ca9 a23d 5ccf 2d3d 4dcc 70bd 7b38 c3bd
000002e0: 5bfe 31bd f6ec c83d eb58 923d defa abbc
000002f0: 8ee8 d6bc 6373 563b 29c4 b0ba c21b d2bd
00000300: e4c4 de3d 8033 1cbc 46c3 043d 9a81 bdbd
00000310: dc5b c8bd 0eaf b9bd c042 01bc d264 083d
00000320: 6f5e ee3d 8668 74bc 0088 c93d ed92 90bc
00000330: 7f12 51bc dfb5 b1bd e224 493d b3e3 97bc
00000340: 1741 9bbd 48ff 84bd a57a 92bd cecd f5bc
00000350: 781c 793c 6ef4 383d 9460 2ebd 2870 babb
00000360: b6fc 383d e762 973c fcdb 593c 8ddb a13d
00000370: 3fbb 92bd cda7 883b 43fd ecbc d6cd c73d
00000380: 1464 93bc 88e0 553d 5ac9 c23d 0b7e adbc
00000390: e462 723d d4b8 d3bd 70d3 aebb 1e0a 8a3d
000003a0: cbe9 7bba c9cd 1f3e 142b a6bd fc57 873d
000003b0: 9360 72bd db7e 3abb bb45 70ba b60a 253d
000003c0: 243f ab3d a601 073c e39f 583b 2d25 92bd
000003d0: 39df 60bd 451b a43c b600 97bd 2ae3 813d
000003e0: 9aec 383d 41f1 9a3d 1350 9fbd ce5e 843d
000003f0: 82be 0cbc feb0 7c3d f8be b73d 761d 55bd

sequential_3/dense_7/BiasAdd/ReadVariableOp f4 [2]
-0.0785061 0.07850613
00000000: cec7 a0bd d2c7 a03d

sequential_3/dense_6/BiasAdd/ReadVariableOp f4 [128]
0.09571182 -0.08166814 0.046817195 -0.096061595 0.11698241 -0.08187897 0.099220976 -0.007486823
-0.08813679 -0.09012806 -0.0089740455 -0.0110095935 0.10585299 0.096367046 -0.0104157 0.08239557
-0.01784947 0.12547186 -0.0105535835 -0.0215183 -0.0026453016 -0.0331452 0.099636234 -0.008161266
0.08445626 -0.03277393 -0.021200951 0.09242875 -0.07548562 0.09428239 -0.015202731 -0.025022779
-0.014149234 0.07624952 -0.007674282 0.09446469 -0.01910451 -0.0046504964 0.10414998 0.1196205
0.12231772 0.107774206 -0.0061061596 0.08458397 0.09960052 0.056845788 0.072513305 0.08443677
-0.066821665 0.06016028 0.12361817 0.04367568 0.087075435 0.107827544 -0.0010502792 -0.020171728
0.12215963 -0.014203484 0.0 -0.08617911 -0.080227666 0.09262384 0.0013813629 0.108424835
-0.038308047 0.09590454 -0.009894788 -0.09823703 0.116226256 -0.02024915 -0.030213982 -0.08650432
-0.016494764 -0.089809835 0.0047436655 -0.037817854 0.12756354 -0.07466193 -0.076278694 -0.087332174
-0.016935755 -0.013661095 -0.007710348 0.07395965 -0.024811868 0.100321546 -0.02722085 -0.013710889
-0.015263322 0.07099103 -0.0887638 -0.0154526355 -0.08900181 -0.030398702 -0.011469699 0.09376879
0.003653362 0.09857655 -0.09239156 -0.030154398 -0.034010313 -0.008391574 -0.073084384 -0.057600383
0.083571784 0.098004274 -0.01935344 0.04443407 -0.027179742 -0.06514654 -0.09262738 -0.016881727
-0.019136038 -0.02826972 -0.08673883 0.090971746 0.0803756 0.07636453 -0.01765682 -0.015825301
0.103073224 -0.011539502 0.008519359 -0.062684946 0.086674884 0.0894598 -0.02268165 0.025500467
00000000: 8f04 c43d a041 a7bd 63c3 3f3d f1bb c4bd
00000010: 7994 ef3d 29b0 a7bd 5e34 cb3d 0654 f5bb
00000020: 1081 b4bd 0f95 b8bd e007 13bc 9561 34bc
00000030: 74c9 d83d 165c c53d 9da6 2abc 02bf a83d
00000040: 0d39 92bc b27b 003e f0e8 2cbc 2547 b0bc
00000050: cc5c 2dbb 43c3 07bd 150e cc3d d5b6 05bc
00000060: 67f7 ac3d f53d 06bd 9ead adbc 494b bd3d
00000070: 3498 9abd 2017 c13d e014 79bc 92fc ccbc
00000080: 30d2 67bc b528 9c3d 8b78 fbbb b476 c13d
00000090: 1081 9cbc 3163 98bb 964c d53d 98fb f43d
000000a0: b681 fa3d b9b8 dc3d 2e16 c8bb 5c3a ad3d
000000b0: 5cfb cb3d 21d7 683d db81 943d 2fed ac3d
000000c0: ccd9 88bd a06a 763d 862b fd3d 45e5 323d
000000d0: 9b54 b23d b0d4 dc3d 86a9 89ba 2e3f a5bc
000000e0: d42e fa3d bbb5 68bc 0000 0000 ac7e b0bd
000000f0: 674e a4bd 91b1 bd3d d90e b53a d70d de3d
00000100: e6e8 1cbd 9969 c43d c01d 22bc 7f30 c9bd
00000110: 0808 ee3d 8ce1 a5bc 5083 f7bc 2d29 b1bd
00000120: 0720 87bc 38ee b7bd c070 9b3b e5e6 1abd
00000130: 04a0 023e 5be8 98bd 0138 9cbd 36db b2bd
00000140: dabc 8abc c9d2 5fbc 16a7 fcbb 2878 973d
00000150: 4242 cbbc 6275 cd3d 43fe debc a3a3 60bc
00000160: 0313 7abc bf63 913d ccc9 b5bd 0d2d 7dbc
00000170: 9546 b6bd b306 f9bc 68eb 3bbc da09 c03d
00000180: 3e6d 6f3b 81e2 c93d c937 bdbd 5b06 f7bc
00000190: 664e 0bbd d07c 09bc 44ad 95bd 61ee 6bbd
000001a0: af27 ab3d 77b6 c83d 1b8b 9ebc 8000 363d
000001b0: 0da8 debc 8d6b 85bd 6cb3 bdbd 8c4b 8abc
000001c0: 2ec3 9cbc e695 e7bc 21a4 b1bd 654f ba3d
000001d0: f69b a43d 0265 9c3d 09a5 90bc 10a4 81bc
000001e0: 0e18 d33d 2e10 3dbc c894 0b3c f760 80bd
000001f0: 9a82 b13d b336 b73d dece b9bc 5be6 d03c

sequential_3/dense_6/MatMul f4 [128, 128]
0.039417204 0.01852736 0.03476474 -0.068120845 -0.09286392 0.11637252 0.06474723 -0.10668328
0.025340047 0.044609465 -0.1353079 -0.05360824 -0.088283345 -0.15449512 0.1464609 -0.015250869
-0.17250523 0.07957704 0.104064725 -0.03200175 -0.108670205 -0.122684635 0.11795295 -0.14535855
0.03463096 -0.15741466 0.13105214 0.1465065 -0.081261694 -0.08125854 0.10265307 -0.13067454
0.044500403 -0.0102745285 -0.06745872 -0.048430614 -0.003121689 0.08500464 0.08349529 -0.19717483
0.13657328 0.1172291 0.01171371 -0.11328858 0.08179466 0.1701631 0.04946265 -0.050890893
0.12771952 0.24896641 0.04387647 -0.05560694 0.07357816 0.03344675 -0.044160224 0.11999054
0.12487957 -0.0060145217 0.15601979 0.14432459 0.04104182 -0.080857925 0.18130185 -0.10393887
-0.06664044 0.0024002774 0.09874569 -0.1108351 -0.08286011 -0.036188297 -0.056688108 0.08096686
-0.1091107 -0.0869072 -0.16651066 -0.053041972 0.06689368 0.042704437 -0.10774512 -0.017547056
0.020913288 -0.06255721 -0.056609757 0.14984338 -0.07562565 0.11506971 0.0644536 0.10570271
-0.010226176 0.16517688 -0.063857965 -0.13562503 -0.08626238 0.033675227 -0.057423886 -0.078457
-0.018698739 0.12730308 -0.042431887 0.1558286 -0.1642142 -0.14660782 -0.05145257 -0.021895818
-0.15084264 -0.03527704 0.16841826 -0.03128191 -0.03310282 0.056412064 0.18868892 -0.11870181
-0.06560361 -0.06533825 0.14075963 -0.060224555 -0.1155195 0.14628437 0.09236749 0.1492259
-0.12541269 -0.042607695 0.05693632 -0.1287437 -0.004725024 -0.097117394 -0.061964475 0.21753958
-0.04902079 0.06741149 -0.08231072 0.020670062 0.16009977 -0.086900696 0.029871002 -0.0037682897
0.044716176 0.06419502 -0.038602028 -0.029338716 0.03889764 0.2571337 0.11149169 -0.047209546
0.050093114 -0.14439222 -0.07858669 -0.10466968 0.13457876 0.0041245897 -0.026105966 0.13924776
-0.028550737 0.14138976 -0.126915 0.016486108 -0.13915436 -0.11273193 -0.02486323 0.07671338
0.11528572 0.10192245 -0.049018487 0.017488388 0.14711146 0.17150573 -0.015564576 0.09070316
-0.013033708 0.06530456 0.084804825 -0.12967949 0.11907677 0.0840717 0.037132118 0.08769432
0.00068550353 -0.12758626 0.00076161325 -0.08021901 -0.005273047 -0.045259736 0.029730279 0.045523353
-0.047663797 0.029770898 0.034047652 -0.13024418 -0.007941395 -0.11591058 -0.1481567 0.16664952
0.101166844 0.11713444 -0.18075545 -0.099329695 -0.13926767 0.068455346 0.053943098 -0.08294507
0.13304982 -0.13149795 0.0854097 -0.08942604 -0.084827036 -0.115650125 -0.11662168 -0.086468615
0.032658014 0.062484574 -0.13311431 0.11200319 0.12862438 0.068919994 0.010008972 -0.0696444
-0.014123752 -0.14563964 0.10305929 -0.106620386 -0.10091319 0.037155475 0.07436642 -0.039861664
-0.078994155 0.10407688 0.050579023 -0.017675 0.05215281 0.13418573 -0.005104229 -0.040276494
0.095056884 -0.0037814 -0.09208287 -0.01134393 -0.013566044 0.041897543 -0.08848946 0.10768454
0.09419146 -0.004833941 0.098414496 -0.025113707 0.16243096 -0.056662973 -0.0049135215 -0.09589005
0.044902205 0.07478951 -0.08084988 0.049716875 -0.12961525 -0.022694074 0.118601754 0.0804165
00000000: ef73 213d b1c6 973c 7965 0e3d f182 8bbd
00000010: 702f bebd b754 ee3d 329a 843d c37c dabd
00000020: ee95 cf3c 6ab8 363d 278e 0abe 5094 5bbd
00000030: e6cd b4bd f833 1ebe d9f9 153e c8de 79bc
00000040: 36a5 30be 4af9 a23d e31f d53d 4414 03bd
00000050: 7c8e debd 1542 fbbd 5191 f13d dfd8 14be
00000060: 32d9 0d3d 4f31 21be 8832 063e cd05 163e
00000070: 886c a6bd e16a a6bd c63b d23d 8ccf 05be
00000080: 0e46 363d 7f56 28bc cc27 8abd 2e5f 46bd
00000090: 4095 4cbb ea16 ae3d 94ff aa3d 33e8 49be
000000a0: ded9 0b3e cf15 f03d dcea 3f3c d803 e8bd
000000b0: f583 a73d 3c3f 2e3e 5999 4a3d f872 50bd
000000c0: e8c8 023e 0df1 7e3e d0b7 333d 1ac4 63bd
000000d0: 25b0 963d 76ff 083d 5ae1 34bd 9abd f53d
000000e0: dcc0 ff3d 7715 c5bb a7c3 1f3e d3c9 133e
000000f0: 781b 283d d798 a5bd 31a7 393e e7dd d4bd
00000100: c87a 88bd f94d 1d3b 2e3b ca3d 83fd e2bd
00000110: 90b2 a9bd 2e3a 14bd ca31 68bd f4d1 a53d
00000120: 6e75 dfbd 67fc b1bd c581 2abe 8a42 59bd
00000130: 8eff 883d d9ea 2e3d 79a9 dcbd d8be 8fbc
00000140: 5852 ab3c ff1d 80bd a2df 67bd 8b70 193e
00000150: 9fe1 9abd aba9 eb3d 4000 843d aa7a d83d
00000160: b18b 27bc 2124 293e f7c7 82bd 4ae1 0abe
00000170: 55aa b0bd 09ef 093d 4f35 6bbd 10ae a0bd
00000180: 192e 99bc bd5b 023e 0fcd 2dbd 8891 1f3e
00000190: c427 28be 5c20 16be eebf 52bd dc5e b3bc
000001a0: 7e76 1abe a87e 10bd d675 2c3e 7621 00bd
000001b0: d396 07bd 5610 673d ab37 413e ef19 f3bd
000001c0: 2f5b 86bd 0fd0 85bd 4b23 103e 06ae 76bd
000001d0: 7d95 ecbd 92cb 153e 2b2b bd3d adce 183e
000001e0: 2f6c 00be 6885 2ebd 0f36 693d 63d5 03be
000001f0: 60d4 9abb 7ce5 c6bd 76ce 7dbd b2c2 5e3e
00000200: 06ca 48bd 090f 8a3d 8692 a8bd 4354 a93c
00000210: 32f1 233e fef8 b1bd 08b4 f43c 69f5 76bb
00000220: 4f28 373d ae78 833d 291d 1ebd bf57 f0bc
00000230: 2253 1f3d 07a7 833e c155 e43d cc5e 41bd
00000240: 702e 4d3d 8edb 13be 0ff2 a0bd 0f5d d6bd
00000250: 04cf 093e 9127 873b 2edc d5bc f796 0e3e
00000260: 3ce3 e9bc 7ac8 103e 01f6 01be e00d 873c
00000270: 7b7e 0ebe 00e0 e6bd f9ad cbbc e81b 9d3d
00000280: eb1a ec3d b8bc d03d 9cc7 48bd cf43 8f3c
00000290: 63a4 163e 339f 2f3e 9002 7fbc 94c2 b93d
000002a0: 558b 55bc 66be 853d 27ae ad3d b3ca 04be
000002b0: 86de f33d c92d ac3d d917 183d 1499 b33d
000002c0: 5db3 333a f9a5 02be 00a7 473a dd49 a4bd
000002d0: 86c9 acbb 4662 39bd ea8c f33c b276 3a3d
000002e0: 1d3b 43bd 19e2 f33c 8d75 0b3d bb5e 05be
000002f0: a01c 02bc 8762 edbd 64b6 17be 2ca6 2a3e
00000300: 9030 cf3d 2ee4 ef3d f517 39be 5e6d cbbd
00000310: 2f9c 0ebe 5132 8c3d 70f3 5c3d 1bdf a9bd
00000320: 363e 083e 66a7 06be 48eb ae3d 0025 b7bd
00000330: ccb9 adbd f9d9 ecbd 59d7 eebd 7516 b1bd
00000340: 69c4 053d d3ef 7f3d 1e4f 08be ee61 e53d
00000350: 1cb6 033e ed25 8d3d acfc 233c b9a1 8ebd
00000360: 4f67 67bc 8f22 15be c010 d33d ca5b dabd
00000370: 93ab cebd 5730 183d 6c4d 983d fc45 23bd
00000380: b0c7 a1bd 4226 d53d f32b 4f3d 29cb 90bc
00000390: 2f9e 553d fc67 093e 6041 a7bb f7f8 24bd
000003a0: 2fad c23d 5dd1 77bb f295 bcbd e4db 39bc
000003b0: 1d44 5ebc c29c 2b3d f639 b5bd b689 dc3d
000003c0: 74e7 c03d 0966 9ebb 8a8d c93d 43bb cdbc
000003d0: 4d54 263e 6f17 68bd 9b01 a1bb 0162 c4bd
000003e0: 60eb 373d 3e2b 993d 9f94 a5bd eca3 4b3d
000003f0: dcb9 04be ece8 b9bc 7ae5 f23d 68b1 a43d

sequential_3/dense_7/MatMul f4 [2, 128]
-0.28112677 0.075594485 -0.15496257 -0.05944259 -0.27715963 0.2792687 0.04096488 0.027403045
-0.003447209 0.10050286 0.13747257 0.15603398 -0.34142557 -0.1345178 0.04245011 -0.09807331
-0.082844794 -0.3643604 0.012204435 0.06462561 0.10060309 -0.103883244 -0.34772727 -0.14858037
-0.17798865 -0.08823685 0.004166567 -0.13631354 0.28223556 -0.27866375 -0.12868626 -0.030271003
0.15334463 -0.16675918 0.13272451 -0.3015347 -0.14717712 -0.1615948 -0.17030095 -0.18463898
-0.3605157 0.07472722 0.12852262 0.060872726 -0.24107958 -0.08198801 -0.18572511 -0.131509
0.21246578 -0.118002586 -0.3351546 0.08287477 -0.17667258 -0.3587339 -0.023873163 0.19504216
-0.3930218 0.15477385 0.18571277 0.08403074 0.238418 -0.036463104 -0.05074882 -0.07246654
0.13241582 0.030039221 0.007595587 -0.064332426 -0.27118447 -0.2100386 0.12547791 0.07949879
0.030113596 0.018169714 0.17791767 0.17389017 -0.2687379 0.12638935 0.16102457 -0.029531052
-0.05971184 0.03591432 -0.06719748 -0.057344723 0.041630518 -0.18248355 0.064464495 0.03813982
0.16382614 -0.18396743 -0.034703076 0.031944472 0.12733701 -0.16381639 0.20630468 -0.30127385
0.11583308 -0.17557731 0.0012521476 0.09630084 0.0913128 0.16745718 0.06472511 0.30033058
-0.19044384 -0.0846703 -0.113900416 -0.02709868 0.07590781 0.16471978 0.13061877 0.16278881
0.07292064 -0.060680382 0.0936016 -0.031577393 -0.025327014 -0.22978705 0.16518568 -0.010209588
-0.14182271 0.09588678 -0.19952762 0.13336521 -0.15362422 -0.02515969 -0.046716016 -0.034981027
0.13629916 -0.24816744 -0.013091972 -0.22914231 0.07321997 -0.14079185 0.28339362 0.09672044
-0.13065805 -0.18772407 -0.16005923 -0.15606897 0.28086552 0.1331703 -0.016890073 -0.012134963
-0.06427562 0.1696055 -0.13340129 0.02140571 -0.020324782 -0.11295121 0.1743321 -0.041499425
-0.07762568 -0.104238704 -0.14350682 0.22709647 -1.28413085e-05 0.2923755 -0.16273291 -0.08023132
-0.10148841 0.11402607 -0.13452026 0.21940787 -0.17111816 -0.15089189 0.25353616 0.22477405
0.30315924 0.20248227 0.09620035 0.2376261 0.024742391 0.0602656 0.036816504 0.12441472
-0.047135096 0.21022153 0.24702813 0.12532571 -0.07374118 0.046120547 -0.02527258 0.15442926
0.27592775 0.103057794 -0.15510345 -0.21789768 -0.25269923 0.13713394 0.13713792 0.22981092
-0.073680416 0.2069191 -0.14746022 -0.20428169 -0.031455614 -0.026858421 -0.05156918 -0.22236626
0.025814498 -0.20605622 0.19241358 0.060986847 -0.04085353 -0.28501427 0.015638553 -0.22141618
-0.14239918 0.016873281 -0.1336396 -0.0020370386 -0.04575467 0.2823545 0.013574984 0.030630978
-0.14991269 0.06590663 -0.1911585 -0.033411913 -0.11283345 0.06062913 -0.08989395 0.18751074
0.1582991 0.25215927 -0.20905721 0.015930858 -0.16985899 0.22399317 -0.19090797 0.045938335
-0.06609275 0.099345975 -0.116574146 0.22297198 -0.11245007 -0.24857941 -0.03671489 -0.18083641
-0.03327747 -0.17939535 -0.28750104 0.113389716 0.08911863 0.16120525 0.04740424 0.18494976
0.051802963 -0.07630558 0.12648681 -0.011757412 0.15134302 0.15166669 -0.04598923 0.06941907
00000000: d9ef 8fbe 48d1 9a3d 82ae 1ebe 137a 73bd
00000010: dee7 8dbe 4ffc 8e3e caca 273d 5a7c e03c
00000020: 92ea 61bb 72d4 cd3d 9cc5 0c3e 5fc7 1f3e
00000030: 55cf aebe 09bf 09be 2be0 2d3d a9da c8bd
00000040: 88aa a9bd 728d babe 1cf5 473c 6f5a 843d
00000050: fe08 ce3d bdc0 d4bd 4f09 b2be 7425 18be
00000060: a842 36be 86b5 b4bd b387 883b c795 0bbe
00000070: 2e81 903e 04ad 8ebe 55c6 03be e5fa f7bc
00000080: 6006 1d3e ebc2 2abe efe8 073e c262 9abe
00000090: 99b5 16be 1b79 25be 5f63 2ebe 0012 3dbe
000000a0: 8495 b8be 960a 993d 6f9b 033e ae55 793d
000000b0: 91dd 76be 54e9 a7bd b92e 3ebe 4caa 06be
000000c0: a190 593e 57ab f1bd 6299 abbe 3fba a93d
000000d0: a8e9 34be f8ab b7be a791 c3bc 22b9 473e
000000e0: 273a c9be 097d 1e3e 7d2b 3e3e 4f18 ac3d
000000f0: d923 743e 565a 15bd ffdd 4fbd 5669 94bd
00000100: 0398 073e d014 f63c 67e4 f83b b8c0 83bd
00000110: b1d8 8abe 5c14 57be 487d 003e 43d0 a23d
00000120: cab0 f63c a7d8 943c 0d30 363e 4410 323e
00000130: 0498 89be 366c 013e a0e3 243e 1beb f1bc
00000140: 6794 74bd e51a 133d d59e 89bd 4de2 6abd
00000150: c384 2a3d f8dc 3abe f605 843d 8038 1c3d
00000160: 0ac2 273e f561 3cbe d024 0ebd 35d8 023d
00000170: a264 023e 7cbf 27be 8941 533e 9140 9abe
00000180: e539 ed3d 8aca 33be 1a1f a43a 6039 c53d
00000190: 3502 bb3d e579 2b3e 998e 843d eec4 993e
000001a0: b603 43be 9f67 adbd 9f44 e9bd 0dfe ddbc
000001b0: 8e75 9b3d 4dac 283e edc0 053e 1cb2 263e
000001c0: 6b57 953d fe8b 78bd 32b2 bf3d 4c57 01bd
000001d0: 997a cfbc 4c4d 6bbe 6f26 293e 1e46 27bc
000001e0: f939 11be 4a60 c43d f850 4cbe e490 083e
000001f0: ab4f 1dbe b21b cebc 4b59 3fbd 4448 0fbd
00000200: 0292 0b3e 9b1f 7ebe b67f 56bc 48a4 6abe
00000210: 5af4 953d bd2b 10be f818 913e 5e15 c63d
00000220: 39cb 05be bd3a 40be 91e6 23be 8bd0 1fbe
00000230: 9bcd 8f3e cc5d 083e 0d5d 8abc b9d1 46bc
00000240: f0a2 83bd 10ad 2d3e 599a 08be 075b af3c
00000250: 2880 a6bc f752 e7bd 1d84 323e 4dfb 29bd
00000260: 36fa 9ebd 1a7b d5bd 74f3 12be fa8b 683e
00000270: 0071 57b7 3eb2 953e 75a3 26be 5150 a4bd
00000280: 28d9 cfbd 8086 e93d aebf 09be 75ac 603e
00000290: 9939 2fbe 6783 1abe 7ecf 813e 2b2b 663e
000002a0: b037 9b3e 8357 4f3e b004 c53d 4254 733e
000002b0: 8eb0 ca3c 10d9 763d e7cc 163d 25cd fe3d
000002c0: bb10 41bd 5044 573e f1f4 7c3e 6255 003e
000002d0: 9e05 97bd e6e8 3c3d 7108 cfbc b422 1e3e
000002e0: 6746 8d3e f70f d33d 70d3 1ebe 9220 5fbe
000002f0: cb61 81be d76c 0c3e e26d 0c3e 8e53 6b3e
00000300: c2e5 96bd 9ae2 533e d0ff 16be 382f 51be
00000310: 9ad7 00bd 3106 dcbc 343a 53bd fbb3 63be
00000320: ed78 d33c 6700 53be 1108 453e 58cd 793d
00000330: 0856 27bd 64ed 91be 6c1c 803c ecba 62be
00000340: 17d1 11be d639 8a3c d2d8 08be d67f 05bb
00000350: 4069 3bbd c590 903e 9c69 5e3c d1ed fa3c
00000360: b682 19be 0efa 863d 0ebf 43be eeda 08bd
00000370: 3915 e7bd 4056 783d 521a b8bd d102 403e
00000380: 2919 223e 051b 813e 1813 56be 6e81 823c
00000390: 84ef 2dbe 775e 653e 617d 43be d629 3c3d
000003a0: a35b 87bd e775 cb3d 6dbe eebd c452 643e
000003b0: 394c e6bd 9a8b 7ebe 5a62 16bd 2e2d 39be
000003c0: f54d 08bd 6ab3 37be 5633 93be de38 e83d
000003d0: d483 b63d fd12 253e f32a 423d 7863 3d3e
000003e0: 582f 543d 1a46 9cbd c285 013e 29a2 40bc
000003f0: aaf9 1a3e 834e 1b3e 345f 3cbd 962b 8e3d
